<?xml version="1.0"?>
<net name="tf2onnx" version="11">
	<layers>
		<layer id="0" name="input" type="Parameter" version="opset1">
			<data shape="?,2048,2" element_type="f32" />
			<output>
				<port id="0" precision="FP32" names="input">
					<dim>-1</dim>
					<dim>2048</dim>
					<dim>2</dim>
				</port>
			</output>
		</layer>
		<layer id="1" name="const_fold_opt__646" type="Const" version="opset1">
			<data element_type="i64" shape="1" offset="0" size="8" />
			<output>
				<port id="0" precision="I64" names="const_fold_opt__646">
					<dim>1</dim>
				</port>
			</output>
		</layer>
		<layer id="2" name="ComplexWaveNet_1/lambda_1/conv1d_1/ExpandDims" type="Unsqueeze" version="opset1">
			<input>
				<port id="0" precision="FP32">
					<dim>-1</dim>
					<dim>2048</dim>
					<dim>2</dim>
				</port>
				<port id="1" precision="I64">
					<dim>1</dim>
				</port>
			</input>
			<output>
				<port id="2" precision="FP32" names="ComplexWaveNet_1/lambda_1/conv1d_1/ExpandDims:0">
					<dim>-1</dim>
					<dim>1</dim>
					<dim>2048</dim>
					<dim>2</dim>
				</port>
			</output>
		</layer>
		<layer id="3" name="Constant_70" type="Const" version="opset1">
			<data element_type="i64" shape="4" offset="8" size="32" />
			<output>
				<port id="0" precision="I64">
					<dim>4</dim>
				</port>
			</output>
		</layer>
		<layer id="4" name="ComplexWaveNet_1/lambda_1/conv1d_1__10" type="Transpose" version="opset1">
			<input>
				<port id="0" precision="FP32">
					<dim>-1</dim>
					<dim>1</dim>
					<dim>2048</dim>
					<dim>2</dim>
				</port>
				<port id="1" precision="I64">
					<dim>4</dim>
				</port>
			</input>
			<output>
				<port id="2" precision="FP32" names="ComplexWaveNet_1/lambda_1/conv1d_1__10:0">
					<dim>-1</dim>
					<dim>2</dim>
					<dim>1</dim>
					<dim>2048</dim>
				</port>
			</output>
		</layer>
		<layer id="5" name="ComplexWaveNet_1/conv1d_1/convolution/ExpandDims_1:0_compressed" type="Const" version="opset1">
			<data element_type="f16" shape="128, 2, 1, 1" offset="40" size="512" />
			<output>
				<port id="0" precision="FP16" names="ComplexWaveNet_1/conv1d_1/convolution/ExpandDims_1:0">
					<dim>128</dim>
					<dim>2</dim>
					<dim>1</dim>
					<dim>1</dim>
				</port>
			</output>
		</layer>
		<layer id="6" name="ComplexWaveNet_1/conv1d_1/convolution/ExpandDims_1:0" type="Convert" version="opset1">
			<data destination_type="f32" />
			<rt_info>
				<attribute name="decompression" version="0" />
			</rt_info>
			<input>
				<port id="0" precision="FP16">
					<dim>128</dim>
					<dim>2</dim>
					<dim>1</dim>
					<dim>1</dim>
				</port>
			</input>
			<output>
				<port id="1" precision="FP32">
					<dim>128</dim>
					<dim>2</dim>
					<dim>1</dim>
					<dim>1</dim>
				</port>
			</output>
		</layer>
		<layer id="7" name="ComplexWaveNet_1/conv1d_1/convolution" type="Convolution" version="opset1">
			<data strides="1, 1" dilations="1, 1" pads_begin="0, 0" pads_end="0, 0" auto_pad="explicit" />
			<input>
				<port id="0" precision="FP32">
					<dim>-1</dim>
					<dim>2</dim>
					<dim>1</dim>
					<dim>2048</dim>
				</port>
				<port id="1" precision="FP32">
					<dim>128</dim>
					<dim>2</dim>
					<dim>1</dim>
					<dim>1</dim>
				</port>
			</input>
			<output>
				<port id="2" precision="FP32" names="ComplexWaveNet_1/conv1d_1/convolution:0">
					<dim>-1</dim>
					<dim>128</dim>
					<dim>1</dim>
					<dim>2048</dim>
				</port>
			</output>
		</layer>
		<layer id="8" name="axes_const__119__352" type="Const" version="opset1">
			<data element_type="i64" shape="1" offset="552" size="8" />
			<output>
				<port id="0" precision="I64" names="axes_const__119__352">
					<dim>1</dim>
				</port>
			</output>
		</layer>
		<layer id="9" name="ComplexWaveNet_1/conv1d_1/convolution/Squeeze" type="Squeeze" version="opset1">
			<input>
				<port id="0" precision="FP32">
					<dim>-1</dim>
					<dim>128</dim>
					<dim>1</dim>
					<dim>2048</dim>
				</port>
				<port id="1" precision="I64">
					<dim>1</dim>
				</port>
			</input>
			<output>
				<port id="2" precision="FP32" names="ComplexWaveNet_1/conv1d_1/convolution/Squeeze:0">
					<dim>-1</dim>
					<dim>128</dim>
					<dim>2048</dim>
				</port>
			</output>
		</layer>
		<layer id="10" name="const_fold_opt__715_compressed" type="Const" version="opset1">
			<data element_type="f16" shape="1, 128, 1" offset="560" size="256" />
			<output>
				<port id="0" precision="FP16" names="const_fold_opt__715">
					<dim>1</dim>
					<dim>128</dim>
					<dim>1</dim>
				</port>
			</output>
		</layer>
		<layer id="11" name="const_fold_opt__715" type="Convert" version="opset1">
			<data destination_type="f32" />
			<rt_info>
				<attribute name="decompression" version="0" />
			</rt_info>
			<input>
				<port id="0" precision="FP16">
					<dim>1</dim>
					<dim>128</dim>
					<dim>1</dim>
				</port>
			</input>
			<output>
				<port id="1" precision="FP32">
					<dim>1</dim>
					<dim>128</dim>
					<dim>1</dim>
				</port>
			</output>
		</layer>
		<layer id="12" name="ComplexWaveNet_1/conv1d_1/BiasAdd" type="Add" version="opset1">
			<data auto_broadcast="numpy" />
			<input>
				<port id="0" precision="FP32">
					<dim>-1</dim>
					<dim>128</dim>
					<dim>2048</dim>
				</port>
				<port id="1" precision="FP32">
					<dim>1</dim>
					<dim>128</dim>
					<dim>1</dim>
				</port>
			</input>
			<output>
				<port id="2" precision="FP32" names="ComplexWaveNet_1/conv1d_1/BiasAdd:0">
					<dim>-1</dim>
					<dim>128</dim>
					<dim>2048</dim>
				</port>
			</output>
		</layer>
		<layer id="13" name="Constant_303" type="Const" version="opset1">
			<data element_type="i64" shape="3" offset="816" size="24" />
			<rt_info>
				<attribute name="precise" version="0" />
			</rt_info>
			<output>
				<port id="0" precision="I64">
					<dim>3</dim>
				</port>
			</output>
		</layer>
		<layer id="14" name="Constant_304" type="Const" version="opset1">
			<data element_type="i64" shape="3" offset="840" size="24" />
			<rt_info>
				<attribute name="precise" version="0" />
			</rt_info>
			<output>
				<port id="0" precision="I64">
					<dim>3</dim>
				</port>
			</output>
		</layer>
		<layer id="15" name="Constant_302_compressed" type="Const" version="opset1">
			<data element_type="f16" shape="" offset="864" size="2" />
			<output>
				<port id="0" precision="FP16" />
			</output>
		</layer>
		<layer id="16" name="Constant_302" type="Convert" version="opset1">
			<data destination_type="f32" />
			<rt_info>
				<attribute name="decompression" version="0" />
			</rt_info>
			<input>
				<port id="0" precision="FP16" />
			</input>
			<output>
				<port id="1" precision="FP32" />
			</output>
		</layer>
		<layer id="17" name="ComplexWaveNet_1/conv1d_1_2/Pad" type="Pad" version="opset12">
			<data pad_mode="constant" />
			<input>
				<port id="0" precision="FP32">
					<dim>-1</dim>
					<dim>128</dim>
					<dim>2048</dim>
				</port>
				<port id="1" precision="I64">
					<dim>3</dim>
				</port>
				<port id="2" precision="I64">
					<dim>3</dim>
				</port>
				<port id="3" precision="FP32" />
			</input>
			<output>
				<port id="4" precision="FP32" names="ComplexWaveNet_1/conv1d_1_2/Pad:0">
					<dim>-1</dim>
					<dim>128</dim>
					<dim>2050</dim>
				</port>
			</output>
		</layer>
		<layer id="18" name="ComplexWaveNet_1/conv1d_1_2/convolution/ExpandDims" type="Unsqueeze" version="opset1">
			<input>
				<port id="0" precision="FP32">
					<dim>-1</dim>
					<dim>128</dim>
					<dim>2050</dim>
				</port>
				<port id="1" precision="I64">
					<dim>1</dim>
				</port>
			</input>
			<output>
				<port id="2" precision="FP32" names="ComplexWaveNet_1/conv1d_1_2/convolution/ExpandDims:0">
					<dim>-1</dim>
					<dim>128</dim>
					<dim>1</dim>
					<dim>2050</dim>
				</port>
			</output>
		</layer>
		<layer id="19" name="ComplexWaveNet_1/conv1d_1_2/convolution/ExpandDims_1:0_compressed" type="Const" version="opset1">
			<data element_type="f16" shape="128, 128, 1, 3" offset="866" size="98304" />
			<output>
				<port id="0" precision="FP16" names="ComplexWaveNet_1/conv1d_1_2/convolution/ExpandDims_1:0">
					<dim>128</dim>
					<dim>128</dim>
					<dim>1</dim>
					<dim>3</dim>
				</port>
			</output>
		</layer>
		<layer id="20" name="ComplexWaveNet_1/conv1d_1_2/convolution/ExpandDims_1:0" type="Convert" version="opset1">
			<data destination_type="f32" />
			<rt_info>
				<attribute name="decompression" version="0" />
			</rt_info>
			<input>
				<port id="0" precision="FP16">
					<dim>128</dim>
					<dim>128</dim>
					<dim>1</dim>
					<dim>3</dim>
				</port>
			</input>
			<output>
				<port id="1" precision="FP32">
					<dim>128</dim>
					<dim>128</dim>
					<dim>1</dim>
					<dim>3</dim>
				</port>
			</output>
		</layer>
		<layer id="21" name="ComplexWaveNet_1/conv1d_1_2/convolution" type="Convolution" version="opset1">
			<data strides="1, 1" dilations="1, 1" pads_begin="0, 0" pads_end="0, 0" auto_pad="explicit" />
			<input>
				<port id="0" precision="FP32">
					<dim>-1</dim>
					<dim>128</dim>
					<dim>1</dim>
					<dim>2050</dim>
				</port>
				<port id="1" precision="FP32">
					<dim>128</dim>
					<dim>128</dim>
					<dim>1</dim>
					<dim>3</dim>
				</port>
			</input>
			<output>
				<port id="2" precision="FP32" names="ComplexWaveNet_1/conv1d_1_2/convolution:0">
					<dim>-1</dim>
					<dim>128</dim>
					<dim>1</dim>
					<dim>2048</dim>
				</port>
			</output>
		</layer>
		<layer id="22" name="ComplexWaveNet_1/conv1d_1_2/convolution/Squeeze" type="Squeeze" version="opset1">
			<input>
				<port id="0" precision="FP32">
					<dim>-1</dim>
					<dim>128</dim>
					<dim>1</dim>
					<dim>2048</dim>
				</port>
				<port id="1" precision="I64">
					<dim>1</dim>
				</port>
			</input>
			<output>
				<port id="2" precision="FP32" names="ComplexWaveNet_1/conv1d_1_2/convolution/Squeeze:0">
					<dim>-1</dim>
					<dim>128</dim>
					<dim>2048</dim>
				</port>
			</output>
		</layer>
		<layer id="23" name="const_fold_opt__717_compressed" type="Const" version="opset1">
			<data element_type="f16" shape="1, 128, 1" offset="99170" size="256" />
			<output>
				<port id="0" precision="FP16" names="const_fold_opt__717">
					<dim>1</dim>
					<dim>128</dim>
					<dim>1</dim>
				</port>
			</output>
		</layer>
		<layer id="24" name="const_fold_opt__717" type="Convert" version="opset1">
			<data destination_type="f32" />
			<rt_info>
				<attribute name="decompression" version="0" />
			</rt_info>
			<input>
				<port id="0" precision="FP16">
					<dim>1</dim>
					<dim>128</dim>
					<dim>1</dim>
				</port>
			</input>
			<output>
				<port id="1" precision="FP32">
					<dim>1</dim>
					<dim>128</dim>
					<dim>1</dim>
				</port>
			</output>
		</layer>
		<layer id="25" name="ComplexWaveNet_1/conv1d_1_2/BiasAdd" type="Add" version="opset1">
			<data auto_broadcast="numpy" />
			<input>
				<port id="0" precision="FP32">
					<dim>-1</dim>
					<dim>128</dim>
					<dim>2048</dim>
				</port>
				<port id="1" precision="FP32">
					<dim>1</dim>
					<dim>128</dim>
					<dim>1</dim>
				</port>
			</input>
			<output>
				<port id="2" precision="FP32" names="ComplexWaveNet_1/conv1d_1_2/BiasAdd:0">
					<dim>-1</dim>
					<dim>128</dim>
					<dim>2048</dim>
				</port>
			</output>
		</layer>
		<layer id="26" name="ComplexWaveNet_1/conv1d_1_2/Tanh" type="Tanh" version="opset1">
			<input>
				<port id="0" precision="FP32">
					<dim>-1</dim>
					<dim>128</dim>
					<dim>2048</dim>
				</port>
			</input>
			<output>
				<port id="1" precision="FP32" names="ComplexWaveNet_1/conv1d_1_2/Tanh:0">
					<dim>-1</dim>
					<dim>128</dim>
					<dim>2048</dim>
				</port>
			</output>
		</layer>
		<layer id="27" name="ComplexWaveNet_1/conv1d_2_1/convolution/ExpandDims_1:0_compressed" type="Const" version="opset1">
			<data element_type="f16" shape="128, 128, 1, 3" offset="99426" size="98304" />
			<output>
				<port id="0" precision="FP16" names="ComplexWaveNet_1/conv1d_2_1/convolution/ExpandDims_1:0">
					<dim>128</dim>
					<dim>128</dim>
					<dim>1</dim>
					<dim>3</dim>
				</port>
			</output>
		</layer>
		<layer id="28" name="ComplexWaveNet_1/conv1d_2_1/convolution/ExpandDims_1:0" type="Convert" version="opset1">
			<data destination_type="f32" />
			<rt_info>
				<attribute name="decompression" version="0" />
			</rt_info>
			<input>
				<port id="0" precision="FP16">
					<dim>128</dim>
					<dim>128</dim>
					<dim>1</dim>
					<dim>3</dim>
				</port>
			</input>
			<output>
				<port id="1" precision="FP32">
					<dim>128</dim>
					<dim>128</dim>
					<dim>1</dim>
					<dim>3</dim>
				</port>
			</output>
		</layer>
		<layer id="29" name="ComplexWaveNet_1/conv1d_2_1/convolution" type="Convolution" version="opset1">
			<data strides="1, 1" dilations="1, 1" pads_begin="0, 0" pads_end="0, 0" auto_pad="explicit" />
			<input>
				<port id="0" precision="FP32">
					<dim>-1</dim>
					<dim>128</dim>
					<dim>1</dim>
					<dim>2050</dim>
				</port>
				<port id="1" precision="FP32">
					<dim>128</dim>
					<dim>128</dim>
					<dim>1</dim>
					<dim>3</dim>
				</port>
			</input>
			<output>
				<port id="2" precision="FP32" names="ComplexWaveNet_1/conv1d_2_1/convolution:0">
					<dim>-1</dim>
					<dim>128</dim>
					<dim>1</dim>
					<dim>2048</dim>
				</port>
			</output>
		</layer>
		<layer id="30" name="ComplexWaveNet_1/conv1d_2_1/convolution/Squeeze" type="Squeeze" version="opset1">
			<input>
				<port id="0" precision="FP32">
					<dim>-1</dim>
					<dim>128</dim>
					<dim>1</dim>
					<dim>2048</dim>
				</port>
				<port id="1" precision="I64">
					<dim>1</dim>
				</port>
			</input>
			<output>
				<port id="2" precision="FP32" names="ComplexWaveNet_1/conv1d_2_1/convolution/Squeeze:0">
					<dim>-1</dim>
					<dim>128</dim>
					<dim>2048</dim>
				</port>
			</output>
		</layer>
		<layer id="31" name="const_fold_opt__710_compressed" type="Const" version="opset1">
			<data element_type="f16" shape="1, 128, 1" offset="197730" size="256" />
			<output>
				<port id="0" precision="FP16" names="const_fold_opt__710">
					<dim>1</dim>
					<dim>128</dim>
					<dim>1</dim>
				</port>
			</output>
		</layer>
		<layer id="32" name="const_fold_opt__710" type="Convert" version="opset1">
			<data destination_type="f32" />
			<rt_info>
				<attribute name="decompression" version="0" />
			</rt_info>
			<input>
				<port id="0" precision="FP16">
					<dim>1</dim>
					<dim>128</dim>
					<dim>1</dim>
				</port>
			</input>
			<output>
				<port id="1" precision="FP32">
					<dim>1</dim>
					<dim>128</dim>
					<dim>1</dim>
				</port>
			</output>
		</layer>
		<layer id="33" name="ComplexWaveNet_1/conv1d_2_1/BiasAdd" type="Add" version="opset1">
			<data auto_broadcast="numpy" />
			<input>
				<port id="0" precision="FP32">
					<dim>-1</dim>
					<dim>128</dim>
					<dim>2048</dim>
				</port>
				<port id="1" precision="FP32">
					<dim>1</dim>
					<dim>128</dim>
					<dim>1</dim>
				</port>
			</input>
			<output>
				<port id="2" precision="FP32" names="ComplexWaveNet_1/conv1d_2_1/BiasAdd:0">
					<dim>-1</dim>
					<dim>128</dim>
					<dim>2048</dim>
				</port>
			</output>
		</layer>
		<layer id="34" name="ComplexWaveNet_1/conv1d_2_1/Sigmoid" type="Sigmoid" version="opset1">
			<input>
				<port id="0" precision="FP32">
					<dim>-1</dim>
					<dim>128</dim>
					<dim>2048</dim>
				</port>
			</input>
			<output>
				<port id="1" precision="FP32" names="ComplexWaveNet_1/conv1d_2_1/Sigmoid:0">
					<dim>-1</dim>
					<dim>128</dim>
					<dim>2048</dim>
				</port>
			</output>
		</layer>
		<layer id="35" name="ComplexWaveNet_1/multiply_1/Mul" type="Multiply" version="opset1">
			<data auto_broadcast="numpy" />
			<input>
				<port id="0" precision="FP32">
					<dim>-1</dim>
					<dim>128</dim>
					<dim>2048</dim>
				</port>
				<port id="1" precision="FP32">
					<dim>-1</dim>
					<dim>128</dim>
					<dim>2048</dim>
				</port>
			</input>
			<output>
				<port id="2" precision="FP32" names="ComplexWaveNet_1/multiply_1/Mul:0">
					<dim>-1</dim>
					<dim>128</dim>
					<dim>2048</dim>
				</port>
			</output>
		</layer>
		<layer id="36" name="ComplexWaveNet_1/conv1d_4_1/convolution/ExpandDims" type="Unsqueeze" version="opset1">
			<input>
				<port id="0" precision="FP32">
					<dim>-1</dim>
					<dim>128</dim>
					<dim>2048</dim>
				</port>
				<port id="1" precision="I64">
					<dim>1</dim>
				</port>
			</input>
			<output>
				<port id="2" precision="FP32" names="ComplexWaveNet_1/conv1d_4_1/convolution/ExpandDims:0">
					<dim>-1</dim>
					<dim>128</dim>
					<dim>1</dim>
					<dim>2048</dim>
				</port>
			</output>
		</layer>
		<layer id="37" name="ComplexWaveNet_1/conv1d_4_1/convolution/ExpandDims_1:0_compressed" type="Const" version="opset1">
			<data element_type="f16" shape="256, 128, 1, 1" offset="197986" size="65536" />
			<output>
				<port id="0" precision="FP16" names="ComplexWaveNet_1/conv1d_4_1/convolution/ExpandDims_1:0">
					<dim>256</dim>
					<dim>128</dim>
					<dim>1</dim>
					<dim>1</dim>
				</port>
			</output>
		</layer>
		<layer id="38" name="ComplexWaveNet_1/conv1d_4_1/convolution/ExpandDims_1:0" type="Convert" version="opset1">
			<data destination_type="f32" />
			<rt_info>
				<attribute name="decompression" version="0" />
			</rt_info>
			<input>
				<port id="0" precision="FP16">
					<dim>256</dim>
					<dim>128</dim>
					<dim>1</dim>
					<dim>1</dim>
				</port>
			</input>
			<output>
				<port id="1" precision="FP32">
					<dim>256</dim>
					<dim>128</dim>
					<dim>1</dim>
					<dim>1</dim>
				</port>
			</output>
		</layer>
		<layer id="39" name="ComplexWaveNet_1/conv1d_4_1/convolution" type="Convolution" version="opset1">
			<data strides="1, 1" dilations="1, 1" pads_begin="0, 0" pads_end="0, 0" auto_pad="explicit" />
			<input>
				<port id="0" precision="FP32">
					<dim>-1</dim>
					<dim>128</dim>
					<dim>1</dim>
					<dim>2048</dim>
				</port>
				<port id="1" precision="FP32">
					<dim>256</dim>
					<dim>128</dim>
					<dim>1</dim>
					<dim>1</dim>
				</port>
			</input>
			<output>
				<port id="2" precision="FP32" names="ComplexWaveNet_1/conv1d_4_1/convolution:0">
					<dim>-1</dim>
					<dim>256</dim>
					<dim>1</dim>
					<dim>2048</dim>
				</port>
			</output>
		</layer>
		<layer id="40" name="ComplexWaveNet_1/conv1d_4_1/convolution/Squeeze" type="Squeeze" version="opset1">
			<input>
				<port id="0" precision="FP32">
					<dim>-1</dim>
					<dim>256</dim>
					<dim>1</dim>
					<dim>2048</dim>
				</port>
				<port id="1" precision="I64">
					<dim>1</dim>
				</port>
			</input>
			<output>
				<port id="2" precision="FP32" names="ComplexWaveNet_1/conv1d_4_1/convolution/Squeeze:0">
					<dim>-1</dim>
					<dim>256</dim>
					<dim>2048</dim>
				</port>
			</output>
		</layer>
		<layer id="41" name="const_fold_opt__709_compressed" type="Const" version="opset1">
			<data element_type="f16" shape="1, 256, 1" offset="263522" size="512" />
			<output>
				<port id="0" precision="FP16" names="const_fold_opt__709">
					<dim>1</dim>
					<dim>256</dim>
					<dim>1</dim>
				</port>
			</output>
		</layer>
		<layer id="42" name="const_fold_opt__709" type="Convert" version="opset1">
			<data destination_type="f32" />
			<rt_info>
				<attribute name="decompression" version="0" />
			</rt_info>
			<input>
				<port id="0" precision="FP16">
					<dim>1</dim>
					<dim>256</dim>
					<dim>1</dim>
				</port>
			</input>
			<output>
				<port id="1" precision="FP32">
					<dim>1</dim>
					<dim>256</dim>
					<dim>1</dim>
				</port>
			</output>
		</layer>
		<layer id="43" name="ComplexWaveNet_1/conv1d_4_1/BiasAdd" type="Add" version="opset1">
			<data auto_broadcast="numpy" />
			<input>
				<port id="0" precision="FP32">
					<dim>-1</dim>
					<dim>256</dim>
					<dim>2048</dim>
				</port>
				<port id="1" precision="FP32">
					<dim>1</dim>
					<dim>256</dim>
					<dim>1</dim>
				</port>
			</input>
			<output>
				<port id="2" precision="FP32" names="ComplexWaveNet_1/conv1d_4_1/BiasAdd:0">
					<dim>-1</dim>
					<dim>256</dim>
					<dim>2048</dim>
				</port>
			</output>
		</layer>
		<layer id="44" name="ComplexWaveNet_1/conv1d_3_1/convolution/ExpandDims_1:0_compressed" type="Const" version="opset1">
			<data element_type="f16" shape="128, 128, 1, 1" offset="264034" size="32768" />
			<output>
				<port id="0" precision="FP16" names="ComplexWaveNet_1/conv1d_3_1/convolution/ExpandDims_1:0">
					<dim>128</dim>
					<dim>128</dim>
					<dim>1</dim>
					<dim>1</dim>
				</port>
			</output>
		</layer>
		<layer id="45" name="ComplexWaveNet_1/conv1d_3_1/convolution/ExpandDims_1:0" type="Convert" version="opset1">
			<data destination_type="f32" />
			<rt_info>
				<attribute name="decompression" version="0" />
			</rt_info>
			<input>
				<port id="0" precision="FP16">
					<dim>128</dim>
					<dim>128</dim>
					<dim>1</dim>
					<dim>1</dim>
				</port>
			</input>
			<output>
				<port id="1" precision="FP32">
					<dim>128</dim>
					<dim>128</dim>
					<dim>1</dim>
					<dim>1</dim>
				</port>
			</output>
		</layer>
		<layer id="46" name="ComplexWaveNet_1/conv1d_3_1/convolution" type="Convolution" version="opset1">
			<data strides="1, 1" dilations="1, 1" pads_begin="0, 0" pads_end="0, 0" auto_pad="explicit" />
			<input>
				<port id="0" precision="FP32">
					<dim>-1</dim>
					<dim>128</dim>
					<dim>1</dim>
					<dim>2048</dim>
				</port>
				<port id="1" precision="FP32">
					<dim>128</dim>
					<dim>128</dim>
					<dim>1</dim>
					<dim>1</dim>
				</port>
			</input>
			<output>
				<port id="2" precision="FP32" names="ComplexWaveNet_1/conv1d_3_1/convolution:0">
					<dim>-1</dim>
					<dim>128</dim>
					<dim>1</dim>
					<dim>2048</dim>
				</port>
			</output>
		</layer>
		<layer id="47" name="ComplexWaveNet_1/conv1d_3_1/convolution/Squeeze" type="Squeeze" version="opset1">
			<input>
				<port id="0" precision="FP32">
					<dim>-1</dim>
					<dim>128</dim>
					<dim>1</dim>
					<dim>2048</dim>
				</port>
				<port id="1" precision="I64">
					<dim>1</dim>
				</port>
			</input>
			<output>
				<port id="2" precision="FP32" names="ComplexWaveNet_1/conv1d_3_1/convolution/Squeeze:0">
					<dim>-1</dim>
					<dim>128</dim>
					<dim>2048</dim>
				</port>
			</output>
		</layer>
		<layer id="48" name="const_fold_opt__671_compressed" type="Const" version="opset1">
			<data element_type="f16" shape="1, 128, 1" offset="296802" size="256" />
			<output>
				<port id="0" precision="FP16" names="const_fold_opt__671">
					<dim>1</dim>
					<dim>128</dim>
					<dim>1</dim>
				</port>
			</output>
		</layer>
		<layer id="49" name="const_fold_opt__671" type="Convert" version="opset1">
			<data destination_type="f32" />
			<rt_info>
				<attribute name="decompression" version="0" />
			</rt_info>
			<input>
				<port id="0" precision="FP16">
					<dim>1</dim>
					<dim>128</dim>
					<dim>1</dim>
				</port>
			</input>
			<output>
				<port id="1" precision="FP32">
					<dim>1</dim>
					<dim>128</dim>
					<dim>1</dim>
				</port>
			</output>
		</layer>
		<layer id="50" name="ComplexWaveNet_1/conv1d_3_1/BiasAdd" type="Add" version="opset1">
			<data auto_broadcast="numpy" />
			<input>
				<port id="0" precision="FP32">
					<dim>-1</dim>
					<dim>128</dim>
					<dim>2048</dim>
				</port>
				<port id="1" precision="FP32">
					<dim>1</dim>
					<dim>128</dim>
					<dim>1</dim>
				</port>
			</input>
			<output>
				<port id="2" precision="FP32" names="ComplexWaveNet_1/conv1d_3_1/BiasAdd:0">
					<dim>-1</dim>
					<dim>128</dim>
					<dim>2048</dim>
				</port>
			</output>
		</layer>
		<layer id="51" name="ComplexWaveNet_1/add_1/Add" type="Add" version="opset1">
			<data auto_broadcast="numpy" />
			<input>
				<port id="0" precision="FP32">
					<dim>-1</dim>
					<dim>128</dim>
					<dim>2048</dim>
				</port>
				<port id="1" precision="FP32">
					<dim>-1</dim>
					<dim>128</dim>
					<dim>2048</dim>
				</port>
			</input>
			<output>
				<port id="2" precision="FP32" names="ComplexWaveNet_1/add_1/Add:0">
					<dim>-1</dim>
					<dim>128</dim>
					<dim>2048</dim>
				</port>
			</output>
		</layer>
		<layer id="52" name="Constant_329" type="Const" version="opset1">
			<data element_type="i64" shape="3" offset="297058" size="24" />
			<rt_info>
				<attribute name="precise" version="0" />
			</rt_info>
			<output>
				<port id="0" precision="I64">
					<dim>3</dim>
				</port>
			</output>
		</layer>
		<layer id="53" name="Constant_330" type="Const" version="opset1">
			<data element_type="i64" shape="3" offset="840" size="24" />
			<rt_info>
				<attribute name="precise" version="0" />
			</rt_info>
			<output>
				<port id="0" precision="I64">
					<dim>3</dim>
				</port>
			</output>
		</layer>
		<layer id="54" name="Constant_328_compressed" type="Const" version="opset1">
			<data element_type="f16" shape="" offset="864" size="2" />
			<output>
				<port id="0" precision="FP16" />
			</output>
		</layer>
		<layer id="55" name="Constant_328" type="Convert" version="opset1">
			<data destination_type="f32" />
			<rt_info>
				<attribute name="decompression" version="0" />
			</rt_info>
			<input>
				<port id="0" precision="FP16" />
			</input>
			<output>
				<port id="1" precision="FP32" />
			</output>
		</layer>
		<layer id="56" name="ComplexWaveNet_1/conv1d_5_1/Pad" type="Pad" version="opset12">
			<data pad_mode="constant" />
			<input>
				<port id="0" precision="FP32">
					<dim>-1</dim>
					<dim>128</dim>
					<dim>2048</dim>
				</port>
				<port id="1" precision="I64">
					<dim>3</dim>
				</port>
				<port id="2" precision="I64">
					<dim>3</dim>
				</port>
				<port id="3" precision="FP32" />
			</input>
			<output>
				<port id="4" precision="FP32" names="ComplexWaveNet_1/conv1d_5_1/Pad:0">
					<dim>-1</dim>
					<dim>128</dim>
					<dim>2052</dim>
				</port>
			</output>
		</layer>
		<layer id="57" name="ComplexWaveNet_1/conv1d_5_1/convolution/ExpandDims" type="Unsqueeze" version="opset1">
			<input>
				<port id="0" precision="FP32">
					<dim>-1</dim>
					<dim>128</dim>
					<dim>2052</dim>
				</port>
				<port id="1" precision="I64">
					<dim>1</dim>
				</port>
			</input>
			<output>
				<port id="2" precision="FP32" names="ComplexWaveNet_1/conv1d_5_1/convolution/ExpandDims:0">
					<dim>-1</dim>
					<dim>128</dim>
					<dim>1</dim>
					<dim>2052</dim>
				</port>
			</output>
		</layer>
		<layer id="58" name="ComplexWaveNet_1/conv1d_5_1/convolution/ExpandDims_1:0_compressed" type="Const" version="opset1">
			<data element_type="f16" shape="128, 128, 1, 3" offset="297082" size="98304" />
			<output>
				<port id="0" precision="FP16" names="ComplexWaveNet_1/conv1d_5_1/convolution/ExpandDims_1:0">
					<dim>128</dim>
					<dim>128</dim>
					<dim>1</dim>
					<dim>3</dim>
				</port>
			</output>
		</layer>
		<layer id="59" name="ComplexWaveNet_1/conv1d_5_1/convolution/ExpandDims_1:0" type="Convert" version="opset1">
			<data destination_type="f32" />
			<rt_info>
				<attribute name="decompression" version="0" />
			</rt_info>
			<input>
				<port id="0" precision="FP16">
					<dim>128</dim>
					<dim>128</dim>
					<dim>1</dim>
					<dim>3</dim>
				</port>
			</input>
			<output>
				<port id="1" precision="FP32">
					<dim>128</dim>
					<dim>128</dim>
					<dim>1</dim>
					<dim>3</dim>
				</port>
			</output>
		</layer>
		<layer id="60" name="ComplexWaveNet_1/conv1d_5_1/convolution" type="Convolution" version="opset1">
			<data strides="1, 1" dilations="1, 2" pads_begin="0, 0" pads_end="0, 0" auto_pad="explicit" />
			<input>
				<port id="0" precision="FP32">
					<dim>-1</dim>
					<dim>128</dim>
					<dim>1</dim>
					<dim>2052</dim>
				</port>
				<port id="1" precision="FP32">
					<dim>128</dim>
					<dim>128</dim>
					<dim>1</dim>
					<dim>3</dim>
				</port>
			</input>
			<output>
				<port id="2" precision="FP32" names="ComplexWaveNet_1/conv1d_5_1/convolution:0">
					<dim>-1</dim>
					<dim>128</dim>
					<dim>1</dim>
					<dim>2048</dim>
				</port>
			</output>
		</layer>
		<layer id="61" name="ComplexWaveNet_1/conv1d_5_1/convolution/Squeeze" type="Squeeze" version="opset1">
			<input>
				<port id="0" precision="FP32">
					<dim>-1</dim>
					<dim>128</dim>
					<dim>1</dim>
					<dim>2048</dim>
				</port>
				<port id="1" precision="I64">
					<dim>1</dim>
				</port>
			</input>
			<output>
				<port id="2" precision="FP32" names="ComplexWaveNet_1/conv1d_5_1/convolution/Squeeze:0">
					<dim>-1</dim>
					<dim>128</dim>
					<dim>2048</dim>
				</port>
			</output>
		</layer>
		<layer id="62" name="const_fold_opt__674_compressed" type="Const" version="opset1">
			<data element_type="f16" shape="1, 128, 1" offset="395386" size="256" />
			<output>
				<port id="0" precision="FP16" names="const_fold_opt__674">
					<dim>1</dim>
					<dim>128</dim>
					<dim>1</dim>
				</port>
			</output>
		</layer>
		<layer id="63" name="const_fold_opt__674" type="Convert" version="opset1">
			<data destination_type="f32" />
			<rt_info>
				<attribute name="decompression" version="0" />
			</rt_info>
			<input>
				<port id="0" precision="FP16">
					<dim>1</dim>
					<dim>128</dim>
					<dim>1</dim>
				</port>
			</input>
			<output>
				<port id="1" precision="FP32">
					<dim>1</dim>
					<dim>128</dim>
					<dim>1</dim>
				</port>
			</output>
		</layer>
		<layer id="64" name="ComplexWaveNet_1/conv1d_5_1/BiasAdd" type="Add" version="opset1">
			<data auto_broadcast="numpy" />
			<input>
				<port id="0" precision="FP32">
					<dim>-1</dim>
					<dim>128</dim>
					<dim>2048</dim>
				</port>
				<port id="1" precision="FP32">
					<dim>1</dim>
					<dim>128</dim>
					<dim>1</dim>
				</port>
			</input>
			<output>
				<port id="2" precision="FP32" names="ComplexWaveNet_1/conv1d_5_1/BiasAdd:0">
					<dim>-1</dim>
					<dim>128</dim>
					<dim>2048</dim>
				</port>
			</output>
		</layer>
		<layer id="65" name="ComplexWaveNet_1/conv1d_5_1/Tanh" type="Tanh" version="opset1">
			<input>
				<port id="0" precision="FP32">
					<dim>-1</dim>
					<dim>128</dim>
					<dim>2048</dim>
				</port>
			</input>
			<output>
				<port id="1" precision="FP32" names="ComplexWaveNet_1/conv1d_5_1/Tanh:0">
					<dim>-1</dim>
					<dim>128</dim>
					<dim>2048</dim>
				</port>
			</output>
		</layer>
		<layer id="66" name="ComplexWaveNet_1/conv1d_6_1/convolution/ExpandDims_1:0_compressed" type="Const" version="opset1">
			<data element_type="f16" shape="128, 128, 1, 3" offset="395642" size="98304" />
			<output>
				<port id="0" precision="FP16" names="ComplexWaveNet_1/conv1d_6_1/convolution/ExpandDims_1:0">
					<dim>128</dim>
					<dim>128</dim>
					<dim>1</dim>
					<dim>3</dim>
				</port>
			</output>
		</layer>
		<layer id="67" name="ComplexWaveNet_1/conv1d_6_1/convolution/ExpandDims_1:0" type="Convert" version="opset1">
			<data destination_type="f32" />
			<rt_info>
				<attribute name="decompression" version="0" />
			</rt_info>
			<input>
				<port id="0" precision="FP16">
					<dim>128</dim>
					<dim>128</dim>
					<dim>1</dim>
					<dim>3</dim>
				</port>
			</input>
			<output>
				<port id="1" precision="FP32">
					<dim>128</dim>
					<dim>128</dim>
					<dim>1</dim>
					<dim>3</dim>
				</port>
			</output>
		</layer>
		<layer id="68" name="ComplexWaveNet_1/conv1d_6_1/convolution" type="Convolution" version="opset1">
			<data strides="1, 1" dilations="1, 2" pads_begin="0, 0" pads_end="0, 0" auto_pad="explicit" />
			<input>
				<port id="0" precision="FP32">
					<dim>-1</dim>
					<dim>128</dim>
					<dim>1</dim>
					<dim>2052</dim>
				</port>
				<port id="1" precision="FP32">
					<dim>128</dim>
					<dim>128</dim>
					<dim>1</dim>
					<dim>3</dim>
				</port>
			</input>
			<output>
				<port id="2" precision="FP32" names="ComplexWaveNet_1/conv1d_6_1/convolution:0">
					<dim>-1</dim>
					<dim>128</dim>
					<dim>1</dim>
					<dim>2048</dim>
				</port>
			</output>
		</layer>
		<layer id="69" name="ComplexWaveNet_1/conv1d_6_1/convolution/Squeeze" type="Squeeze" version="opset1">
			<input>
				<port id="0" precision="FP32">
					<dim>-1</dim>
					<dim>128</dim>
					<dim>1</dim>
					<dim>2048</dim>
				</port>
				<port id="1" precision="I64">
					<dim>1</dim>
				</port>
			</input>
			<output>
				<port id="2" precision="FP32" names="ComplexWaveNet_1/conv1d_6_1/convolution/Squeeze:0">
					<dim>-1</dim>
					<dim>128</dim>
					<dim>2048</dim>
				</port>
			</output>
		</layer>
		<layer id="70" name="const_fold_opt__711_compressed" type="Const" version="opset1">
			<data element_type="f16" shape="1, 128, 1" offset="493946" size="256" />
			<output>
				<port id="0" precision="FP16" names="const_fold_opt__711">
					<dim>1</dim>
					<dim>128</dim>
					<dim>1</dim>
				</port>
			</output>
		</layer>
		<layer id="71" name="const_fold_opt__711" type="Convert" version="opset1">
			<data destination_type="f32" />
			<rt_info>
				<attribute name="decompression" version="0" />
			</rt_info>
			<input>
				<port id="0" precision="FP16">
					<dim>1</dim>
					<dim>128</dim>
					<dim>1</dim>
				</port>
			</input>
			<output>
				<port id="1" precision="FP32">
					<dim>1</dim>
					<dim>128</dim>
					<dim>1</dim>
				</port>
			</output>
		</layer>
		<layer id="72" name="ComplexWaveNet_1/conv1d_6_1/BiasAdd" type="Add" version="opset1">
			<data auto_broadcast="numpy" />
			<input>
				<port id="0" precision="FP32">
					<dim>-1</dim>
					<dim>128</dim>
					<dim>2048</dim>
				</port>
				<port id="1" precision="FP32">
					<dim>1</dim>
					<dim>128</dim>
					<dim>1</dim>
				</port>
			</input>
			<output>
				<port id="2" precision="FP32" names="ComplexWaveNet_1/conv1d_6_1/BiasAdd:0">
					<dim>-1</dim>
					<dim>128</dim>
					<dim>2048</dim>
				</port>
			</output>
		</layer>
		<layer id="73" name="ComplexWaveNet_1/conv1d_6_1/Sigmoid" type="Sigmoid" version="opset1">
			<input>
				<port id="0" precision="FP32">
					<dim>-1</dim>
					<dim>128</dim>
					<dim>2048</dim>
				</port>
			</input>
			<output>
				<port id="1" precision="FP32" names="ComplexWaveNet_1/conv1d_6_1/Sigmoid:0">
					<dim>-1</dim>
					<dim>128</dim>
					<dim>2048</dim>
				</port>
			</output>
		</layer>
		<layer id="74" name="ComplexWaveNet_1/multiply_1_2/Mul" type="Multiply" version="opset1">
			<data auto_broadcast="numpy" />
			<input>
				<port id="0" precision="FP32">
					<dim>-1</dim>
					<dim>128</dim>
					<dim>2048</dim>
				</port>
				<port id="1" precision="FP32">
					<dim>-1</dim>
					<dim>128</dim>
					<dim>2048</dim>
				</port>
			</input>
			<output>
				<port id="2" precision="FP32" names="ComplexWaveNet_1/multiply_1_2/Mul:0">
					<dim>-1</dim>
					<dim>128</dim>
					<dim>2048</dim>
				</port>
			</output>
		</layer>
		<layer id="75" name="ComplexWaveNet_1/conv1d_7_1/convolution/ExpandDims" type="Unsqueeze" version="opset1">
			<input>
				<port id="0" precision="FP32">
					<dim>-1</dim>
					<dim>128</dim>
					<dim>2048</dim>
				</port>
				<port id="1" precision="I64">
					<dim>1</dim>
				</port>
			</input>
			<output>
				<port id="2" precision="FP32" names="ComplexWaveNet_1/conv1d_7_1/convolution/ExpandDims:0">
					<dim>-1</dim>
					<dim>128</dim>
					<dim>1</dim>
					<dim>2048</dim>
				</port>
			</output>
		</layer>
		<layer id="76" name="ComplexWaveNet_1/conv1d_8_1/convolution/ExpandDims_1:0_compressed" type="Const" version="opset1">
			<data element_type="f16" shape="256, 128, 1, 1" offset="494202" size="65536" />
			<output>
				<port id="0" precision="FP16" names="ComplexWaveNet_1/conv1d_8_1/convolution/ExpandDims_1:0">
					<dim>256</dim>
					<dim>128</dim>
					<dim>1</dim>
					<dim>1</dim>
				</port>
			</output>
		</layer>
		<layer id="77" name="ComplexWaveNet_1/conv1d_8_1/convolution/ExpandDims_1:0" type="Convert" version="opset1">
			<data destination_type="f32" />
			<rt_info>
				<attribute name="decompression" version="0" />
			</rt_info>
			<input>
				<port id="0" precision="FP16">
					<dim>256</dim>
					<dim>128</dim>
					<dim>1</dim>
					<dim>1</dim>
				</port>
			</input>
			<output>
				<port id="1" precision="FP32">
					<dim>256</dim>
					<dim>128</dim>
					<dim>1</dim>
					<dim>1</dim>
				</port>
			</output>
		</layer>
		<layer id="78" name="ComplexWaveNet_1/conv1d_8_1/convolution" type="Convolution" version="opset1">
			<data strides="1, 1" dilations="1, 1" pads_begin="0, 0" pads_end="0, 0" auto_pad="explicit" />
			<input>
				<port id="0" precision="FP32">
					<dim>-1</dim>
					<dim>128</dim>
					<dim>1</dim>
					<dim>2048</dim>
				</port>
				<port id="1" precision="FP32">
					<dim>256</dim>
					<dim>128</dim>
					<dim>1</dim>
					<dim>1</dim>
				</port>
			</input>
			<output>
				<port id="2" precision="FP32" names="ComplexWaveNet_1/conv1d_8_1/convolution:0">
					<dim>-1</dim>
					<dim>256</dim>
					<dim>1</dim>
					<dim>2048</dim>
				</port>
			</output>
		</layer>
		<layer id="79" name="ComplexWaveNet_1/conv1d_8_1/convolution/Squeeze" type="Squeeze" version="opset1">
			<input>
				<port id="0" precision="FP32">
					<dim>-1</dim>
					<dim>256</dim>
					<dim>1</dim>
					<dim>2048</dim>
				</port>
				<port id="1" precision="I64">
					<dim>1</dim>
				</port>
			</input>
			<output>
				<port id="2" precision="FP32" names="ComplexWaveNet_1/conv1d_8_1/convolution/Squeeze:0">
					<dim>-1</dim>
					<dim>256</dim>
					<dim>2048</dim>
				</port>
			</output>
		</layer>
		<layer id="80" name="const_fold_opt__675_compressed" type="Const" version="opset1">
			<data element_type="f16" shape="1, 256, 1" offset="559738" size="512" />
			<output>
				<port id="0" precision="FP16" names="const_fold_opt__675">
					<dim>1</dim>
					<dim>256</dim>
					<dim>1</dim>
				</port>
			</output>
		</layer>
		<layer id="81" name="const_fold_opt__675" type="Convert" version="opset1">
			<data destination_type="f32" />
			<rt_info>
				<attribute name="decompression" version="0" />
			</rt_info>
			<input>
				<port id="0" precision="FP16">
					<dim>1</dim>
					<dim>256</dim>
					<dim>1</dim>
				</port>
			</input>
			<output>
				<port id="1" precision="FP32">
					<dim>1</dim>
					<dim>256</dim>
					<dim>1</dim>
				</port>
			</output>
		</layer>
		<layer id="82" name="ComplexWaveNet_1/conv1d_8_1/BiasAdd" type="Add" version="opset1">
			<data auto_broadcast="numpy" />
			<input>
				<port id="0" precision="FP32">
					<dim>-1</dim>
					<dim>256</dim>
					<dim>2048</dim>
				</port>
				<port id="1" precision="FP32">
					<dim>1</dim>
					<dim>256</dim>
					<dim>1</dim>
				</port>
			</input>
			<output>
				<port id="2" precision="FP32" names="ComplexWaveNet_1/conv1d_8_1/BiasAdd:0">
					<dim>-1</dim>
					<dim>256</dim>
					<dim>2048</dim>
				</port>
			</output>
		</layer>
		<layer id="83" name="ComplexWaveNet_1/add_5_1/Add" type="Add" version="opset1">
			<data auto_broadcast="numpy" />
			<input>
				<port id="0" precision="FP32">
					<dim>-1</dim>
					<dim>256</dim>
					<dim>2048</dim>
				</port>
				<port id="1" precision="FP32">
					<dim>-1</dim>
					<dim>256</dim>
					<dim>2048</dim>
				</port>
			</input>
			<output>
				<port id="2" precision="FP32" names="ComplexWaveNet_1/add_5_1/Add:0">
					<dim>-1</dim>
					<dim>256</dim>
					<dim>2048</dim>
				</port>
			</output>
		</layer>
		<layer id="84" name="ComplexWaveNet_1/conv1d_7_1/convolution/ExpandDims_1:0_compressed" type="Const" version="opset1">
			<data element_type="f16" shape="128, 128, 1, 1" offset="560250" size="32768" />
			<output>
				<port id="0" precision="FP16" names="ComplexWaveNet_1/conv1d_7_1/convolution/ExpandDims_1:0">
					<dim>128</dim>
					<dim>128</dim>
					<dim>1</dim>
					<dim>1</dim>
				</port>
			</output>
		</layer>
		<layer id="85" name="ComplexWaveNet_1/conv1d_7_1/convolution/ExpandDims_1:0" type="Convert" version="opset1">
			<data destination_type="f32" />
			<rt_info>
				<attribute name="decompression" version="0" />
			</rt_info>
			<input>
				<port id="0" precision="FP16">
					<dim>128</dim>
					<dim>128</dim>
					<dim>1</dim>
					<dim>1</dim>
				</port>
			</input>
			<output>
				<port id="1" precision="FP32">
					<dim>128</dim>
					<dim>128</dim>
					<dim>1</dim>
					<dim>1</dim>
				</port>
			</output>
		</layer>
		<layer id="86" name="ComplexWaveNet_1/conv1d_7_1/convolution" type="Convolution" version="opset1">
			<data strides="1, 1" dilations="1, 1" pads_begin="0, 0" pads_end="0, 0" auto_pad="explicit" />
			<input>
				<port id="0" precision="FP32">
					<dim>-1</dim>
					<dim>128</dim>
					<dim>1</dim>
					<dim>2048</dim>
				</port>
				<port id="1" precision="FP32">
					<dim>128</dim>
					<dim>128</dim>
					<dim>1</dim>
					<dim>1</dim>
				</port>
			</input>
			<output>
				<port id="2" precision="FP32" names="ComplexWaveNet_1/conv1d_7_1/convolution:0">
					<dim>-1</dim>
					<dim>128</dim>
					<dim>1</dim>
					<dim>2048</dim>
				</port>
			</output>
		</layer>
		<layer id="87" name="ComplexWaveNet_1/conv1d_7_1/convolution/Squeeze" type="Squeeze" version="opset1">
			<input>
				<port id="0" precision="FP32">
					<dim>-1</dim>
					<dim>128</dim>
					<dim>1</dim>
					<dim>2048</dim>
				</port>
				<port id="1" precision="I64">
					<dim>1</dim>
				</port>
			</input>
			<output>
				<port id="2" precision="FP32" names="ComplexWaveNet_1/conv1d_7_1/convolution/Squeeze:0">
					<dim>-1</dim>
					<dim>128</dim>
					<dim>2048</dim>
				</port>
			</output>
		</layer>
		<layer id="88" name="const_fold_opt__677_compressed" type="Const" version="opset1">
			<data element_type="f16" shape="1, 128, 1" offset="593018" size="256" />
			<output>
				<port id="0" precision="FP16" names="const_fold_opt__677">
					<dim>1</dim>
					<dim>128</dim>
					<dim>1</dim>
				</port>
			</output>
		</layer>
		<layer id="89" name="const_fold_opt__677" type="Convert" version="opset1">
			<data destination_type="f32" />
			<rt_info>
				<attribute name="decompression" version="0" />
			</rt_info>
			<input>
				<port id="0" precision="FP16">
					<dim>1</dim>
					<dim>128</dim>
					<dim>1</dim>
				</port>
			</input>
			<output>
				<port id="1" precision="FP32">
					<dim>1</dim>
					<dim>128</dim>
					<dim>1</dim>
				</port>
			</output>
		</layer>
		<layer id="90" name="ComplexWaveNet_1/conv1d_7_1/BiasAdd" type="Add" version="opset1">
			<data auto_broadcast="numpy" />
			<input>
				<port id="0" precision="FP32">
					<dim>-1</dim>
					<dim>128</dim>
					<dim>2048</dim>
				</port>
				<port id="1" precision="FP32">
					<dim>1</dim>
					<dim>128</dim>
					<dim>1</dim>
				</port>
			</input>
			<output>
				<port id="2" precision="FP32" names="ComplexWaveNet_1/conv1d_7_1/BiasAdd:0">
					<dim>-1</dim>
					<dim>128</dim>
					<dim>2048</dim>
				</port>
			</output>
		</layer>
		<layer id="91" name="ComplexWaveNet_1/add_1_2/Add" type="Add" version="opset1">
			<data auto_broadcast="numpy" />
			<input>
				<port id="0" precision="FP32">
					<dim>-1</dim>
					<dim>128</dim>
					<dim>2048</dim>
				</port>
				<port id="1" precision="FP32">
					<dim>-1</dim>
					<dim>128</dim>
					<dim>2048</dim>
				</port>
			</input>
			<output>
				<port id="2" precision="FP32" names="ComplexWaveNet_1/add_1_2/Add:0">
					<dim>-1</dim>
					<dim>128</dim>
					<dim>2048</dim>
				</port>
			</output>
		</layer>
		<layer id="92" name="Constant_356" type="Const" version="opset1">
			<data element_type="i64" shape="3" offset="593274" size="24" />
			<rt_info>
				<attribute name="precise" version="0" />
			</rt_info>
			<output>
				<port id="0" precision="I64">
					<dim>3</dim>
				</port>
			</output>
		</layer>
		<layer id="93" name="Constant_357" type="Const" version="opset1">
			<data element_type="i64" shape="3" offset="840" size="24" />
			<rt_info>
				<attribute name="precise" version="0" />
			</rt_info>
			<output>
				<port id="0" precision="I64">
					<dim>3</dim>
				</port>
			</output>
		</layer>
		<layer id="94" name="Constant_355_compressed" type="Const" version="opset1">
			<data element_type="f16" shape="" offset="864" size="2" />
			<output>
				<port id="0" precision="FP16" />
			</output>
		</layer>
		<layer id="95" name="Constant_355" type="Convert" version="opset1">
			<data destination_type="f32" />
			<rt_info>
				<attribute name="decompression" version="0" />
			</rt_info>
			<input>
				<port id="0" precision="FP16" />
			</input>
			<output>
				<port id="1" precision="FP32" />
			</output>
		</layer>
		<layer id="96" name="ComplexWaveNet_1/conv1d_9_1/Pad" type="Pad" version="opset12">
			<data pad_mode="constant" />
			<input>
				<port id="0" precision="FP32">
					<dim>-1</dim>
					<dim>128</dim>
					<dim>2048</dim>
				</port>
				<port id="1" precision="I64">
					<dim>3</dim>
				</port>
				<port id="2" precision="I64">
					<dim>3</dim>
				</port>
				<port id="3" precision="FP32" />
			</input>
			<output>
				<port id="4" precision="FP32" names="ComplexWaveNet_1/conv1d_9_1/Pad:0">
					<dim>-1</dim>
					<dim>128</dim>
					<dim>2056</dim>
				</port>
			</output>
		</layer>
		<layer id="97" name="ComplexWaveNet_1/conv1d_9_1/convolution/ExpandDims" type="Unsqueeze" version="opset1">
			<input>
				<port id="0" precision="FP32">
					<dim>-1</dim>
					<dim>128</dim>
					<dim>2056</dim>
				</port>
				<port id="1" precision="I64">
					<dim>1</dim>
				</port>
			</input>
			<output>
				<port id="2" precision="FP32" names="ComplexWaveNet_1/conv1d_9_1/convolution/ExpandDims:0">
					<dim>-1</dim>
					<dim>128</dim>
					<dim>1</dim>
					<dim>2056</dim>
				</port>
			</output>
		</layer>
		<layer id="98" name="ComplexWaveNet_1/conv1d_9_1/convolution/ExpandDims_1:0_compressed" type="Const" version="opset1">
			<data element_type="f16" shape="128, 128, 1, 3" offset="593298" size="98304" />
			<output>
				<port id="0" precision="FP16" names="ComplexWaveNet_1/conv1d_9_1/convolution/ExpandDims_1:0">
					<dim>128</dim>
					<dim>128</dim>
					<dim>1</dim>
					<dim>3</dim>
				</port>
			</output>
		</layer>
		<layer id="99" name="ComplexWaveNet_1/conv1d_9_1/convolution/ExpandDims_1:0" type="Convert" version="opset1">
			<data destination_type="f32" />
			<rt_info>
				<attribute name="decompression" version="0" />
			</rt_info>
			<input>
				<port id="0" precision="FP16">
					<dim>128</dim>
					<dim>128</dim>
					<dim>1</dim>
					<dim>3</dim>
				</port>
			</input>
			<output>
				<port id="1" precision="FP32">
					<dim>128</dim>
					<dim>128</dim>
					<dim>1</dim>
					<dim>3</dim>
				</port>
			</output>
		</layer>
		<layer id="100" name="ComplexWaveNet_1/conv1d_9_1/convolution" type="Convolution" version="opset1">
			<data strides="1, 1" dilations="1, 4" pads_begin="0, 0" pads_end="0, 0" auto_pad="explicit" />
			<input>
				<port id="0" precision="FP32">
					<dim>-1</dim>
					<dim>128</dim>
					<dim>1</dim>
					<dim>2056</dim>
				</port>
				<port id="1" precision="FP32">
					<dim>128</dim>
					<dim>128</dim>
					<dim>1</dim>
					<dim>3</dim>
				</port>
			</input>
			<output>
				<port id="2" precision="FP32" names="ComplexWaveNet_1/conv1d_9_1/convolution:0">
					<dim>-1</dim>
					<dim>128</dim>
					<dim>1</dim>
					<dim>2048</dim>
				</port>
			</output>
		</layer>
		<layer id="101" name="ComplexWaveNet_1/conv1d_9_1/convolution/Squeeze" type="Squeeze" version="opset1">
			<input>
				<port id="0" precision="FP32">
					<dim>-1</dim>
					<dim>128</dim>
					<dim>1</dim>
					<dim>2048</dim>
				</port>
				<port id="1" precision="I64">
					<dim>1</dim>
				</port>
			</input>
			<output>
				<port id="2" precision="FP32" names="ComplexWaveNet_1/conv1d_9_1/convolution/Squeeze:0">
					<dim>-1</dim>
					<dim>128</dim>
					<dim>2048</dim>
				</port>
			</output>
		</layer>
		<layer id="102" name="const_fold_opt__678_compressed" type="Const" version="opset1">
			<data element_type="f16" shape="1, 128, 1" offset="691602" size="256" />
			<output>
				<port id="0" precision="FP16" names="const_fold_opt__678">
					<dim>1</dim>
					<dim>128</dim>
					<dim>1</dim>
				</port>
			</output>
		</layer>
		<layer id="103" name="const_fold_opt__678" type="Convert" version="opset1">
			<data destination_type="f32" />
			<rt_info>
				<attribute name="decompression" version="0" />
			</rt_info>
			<input>
				<port id="0" precision="FP16">
					<dim>1</dim>
					<dim>128</dim>
					<dim>1</dim>
				</port>
			</input>
			<output>
				<port id="1" precision="FP32">
					<dim>1</dim>
					<dim>128</dim>
					<dim>1</dim>
				</port>
			</output>
		</layer>
		<layer id="104" name="ComplexWaveNet_1/conv1d_9_1/BiasAdd" type="Add" version="opset1">
			<data auto_broadcast="numpy" />
			<input>
				<port id="0" precision="FP32">
					<dim>-1</dim>
					<dim>128</dim>
					<dim>2048</dim>
				</port>
				<port id="1" precision="FP32">
					<dim>1</dim>
					<dim>128</dim>
					<dim>1</dim>
				</port>
			</input>
			<output>
				<port id="2" precision="FP32" names="ComplexWaveNet_1/conv1d_9_1/BiasAdd:0">
					<dim>-1</dim>
					<dim>128</dim>
					<dim>2048</dim>
				</port>
			</output>
		</layer>
		<layer id="105" name="ComplexWaveNet_1/conv1d_9_1/Tanh" type="Tanh" version="opset1">
			<input>
				<port id="0" precision="FP32">
					<dim>-1</dim>
					<dim>128</dim>
					<dim>2048</dim>
				</port>
			</input>
			<output>
				<port id="1" precision="FP32" names="ComplexWaveNet_1/conv1d_9_1/Tanh:0">
					<dim>-1</dim>
					<dim>128</dim>
					<dim>2048</dim>
				</port>
			</output>
		</layer>
		<layer id="106" name="ComplexWaveNet_1/conv1d_10_1/convolution/ExpandDims_1:0_compressed" type="Const" version="opset1">
			<data element_type="f16" shape="128, 128, 1, 3" offset="691858" size="98304" />
			<output>
				<port id="0" precision="FP16" names="ComplexWaveNet_1/conv1d_10_1/convolution/ExpandDims_1:0">
					<dim>128</dim>
					<dim>128</dim>
					<dim>1</dim>
					<dim>3</dim>
				</port>
			</output>
		</layer>
		<layer id="107" name="ComplexWaveNet_1/conv1d_10_1/convolution/ExpandDims_1:0" type="Convert" version="opset1">
			<data destination_type="f32" />
			<rt_info>
				<attribute name="decompression" version="0" />
			</rt_info>
			<input>
				<port id="0" precision="FP16">
					<dim>128</dim>
					<dim>128</dim>
					<dim>1</dim>
					<dim>3</dim>
				</port>
			</input>
			<output>
				<port id="1" precision="FP32">
					<dim>128</dim>
					<dim>128</dim>
					<dim>1</dim>
					<dim>3</dim>
				</port>
			</output>
		</layer>
		<layer id="108" name="ComplexWaveNet_1/conv1d_10_1/convolution" type="Convolution" version="opset1">
			<data strides="1, 1" dilations="1, 4" pads_begin="0, 0" pads_end="0, 0" auto_pad="explicit" />
			<input>
				<port id="0" precision="FP32">
					<dim>-1</dim>
					<dim>128</dim>
					<dim>1</dim>
					<dim>2056</dim>
				</port>
				<port id="1" precision="FP32">
					<dim>128</dim>
					<dim>128</dim>
					<dim>1</dim>
					<dim>3</dim>
				</port>
			</input>
			<output>
				<port id="2" precision="FP32" names="ComplexWaveNet_1/conv1d_10_1/convolution:0">
					<dim>-1</dim>
					<dim>128</dim>
					<dim>1</dim>
					<dim>2048</dim>
				</port>
			</output>
		</layer>
		<layer id="109" name="ComplexWaveNet_1/conv1d_10_1/convolution/Squeeze" type="Squeeze" version="opset1">
			<input>
				<port id="0" precision="FP32">
					<dim>-1</dim>
					<dim>128</dim>
					<dim>1</dim>
					<dim>2048</dim>
				</port>
				<port id="1" precision="I64">
					<dim>1</dim>
				</port>
			</input>
			<output>
				<port id="2" precision="FP32" names="ComplexWaveNet_1/conv1d_10_1/convolution/Squeeze:0">
					<dim>-1</dim>
					<dim>128</dim>
					<dim>2048</dim>
				</port>
			</output>
		</layer>
		<layer id="110" name="const_fold_opt__680_compressed" type="Const" version="opset1">
			<data element_type="f16" shape="1, 128, 1" offset="790162" size="256" />
			<output>
				<port id="0" precision="FP16" names="const_fold_opt__680">
					<dim>1</dim>
					<dim>128</dim>
					<dim>1</dim>
				</port>
			</output>
		</layer>
		<layer id="111" name="const_fold_opt__680" type="Convert" version="opset1">
			<data destination_type="f32" />
			<rt_info>
				<attribute name="decompression" version="0" />
			</rt_info>
			<input>
				<port id="0" precision="FP16">
					<dim>1</dim>
					<dim>128</dim>
					<dim>1</dim>
				</port>
			</input>
			<output>
				<port id="1" precision="FP32">
					<dim>1</dim>
					<dim>128</dim>
					<dim>1</dim>
				</port>
			</output>
		</layer>
		<layer id="112" name="ComplexWaveNet_1/conv1d_10_1/BiasAdd" type="Add" version="opset1">
			<data auto_broadcast="numpy" />
			<input>
				<port id="0" precision="FP32">
					<dim>-1</dim>
					<dim>128</dim>
					<dim>2048</dim>
				</port>
				<port id="1" precision="FP32">
					<dim>1</dim>
					<dim>128</dim>
					<dim>1</dim>
				</port>
			</input>
			<output>
				<port id="2" precision="FP32" names="ComplexWaveNet_1/conv1d_10_1/BiasAdd:0">
					<dim>-1</dim>
					<dim>128</dim>
					<dim>2048</dim>
				</port>
			</output>
		</layer>
		<layer id="113" name="ComplexWaveNet_1/conv1d_10_1/Sigmoid" type="Sigmoid" version="opset1">
			<input>
				<port id="0" precision="FP32">
					<dim>-1</dim>
					<dim>128</dim>
					<dim>2048</dim>
				</port>
			</input>
			<output>
				<port id="1" precision="FP32" names="ComplexWaveNet_1/conv1d_10_1/Sigmoid:0">
					<dim>-1</dim>
					<dim>128</dim>
					<dim>2048</dim>
				</port>
			</output>
		</layer>
		<layer id="114" name="ComplexWaveNet_1/multiply_2_1/Mul" type="Multiply" version="opset1">
			<data auto_broadcast="numpy" />
			<input>
				<port id="0" precision="FP32">
					<dim>-1</dim>
					<dim>128</dim>
					<dim>2048</dim>
				</port>
				<port id="1" precision="FP32">
					<dim>-1</dim>
					<dim>128</dim>
					<dim>2048</dim>
				</port>
			</input>
			<output>
				<port id="2" precision="FP32" names="ComplexWaveNet_1/multiply_2_1/Mul:0">
					<dim>-1</dim>
					<dim>128</dim>
					<dim>2048</dim>
				</port>
			</output>
		</layer>
		<layer id="115" name="ComplexWaveNet_1/conv1d_11_1/convolution/ExpandDims" type="Unsqueeze" version="opset1">
			<input>
				<port id="0" precision="FP32">
					<dim>-1</dim>
					<dim>128</dim>
					<dim>2048</dim>
				</port>
				<port id="1" precision="I64">
					<dim>1</dim>
				</port>
			</input>
			<output>
				<port id="2" precision="FP32" names="ComplexWaveNet_1/conv1d_11_1/convolution/ExpandDims:0">
					<dim>-1</dim>
					<dim>128</dim>
					<dim>1</dim>
					<dim>2048</dim>
				</port>
			</output>
		</layer>
		<layer id="116" name="ComplexWaveNet_1/conv1d_12_1/convolution/ExpandDims_1:0_compressed" type="Const" version="opset1">
			<data element_type="f16" shape="256, 128, 1, 1" offset="790418" size="65536" />
			<output>
				<port id="0" precision="FP16" names="ComplexWaveNet_1/conv1d_12_1/convolution/ExpandDims_1:0">
					<dim>256</dim>
					<dim>128</dim>
					<dim>1</dim>
					<dim>1</dim>
				</port>
			</output>
		</layer>
		<layer id="117" name="ComplexWaveNet_1/conv1d_12_1/convolution/ExpandDims_1:0" type="Convert" version="opset1">
			<data destination_type="f32" />
			<rt_info>
				<attribute name="decompression" version="0" />
			</rt_info>
			<input>
				<port id="0" precision="FP16">
					<dim>256</dim>
					<dim>128</dim>
					<dim>1</dim>
					<dim>1</dim>
				</port>
			</input>
			<output>
				<port id="1" precision="FP32">
					<dim>256</dim>
					<dim>128</dim>
					<dim>1</dim>
					<dim>1</dim>
				</port>
			</output>
		</layer>
		<layer id="118" name="ComplexWaveNet_1/conv1d_12_1/convolution" type="Convolution" version="opset1">
			<data strides="1, 1" dilations="1, 1" pads_begin="0, 0" pads_end="0, 0" auto_pad="explicit" />
			<input>
				<port id="0" precision="FP32">
					<dim>-1</dim>
					<dim>128</dim>
					<dim>1</dim>
					<dim>2048</dim>
				</port>
				<port id="1" precision="FP32">
					<dim>256</dim>
					<dim>128</dim>
					<dim>1</dim>
					<dim>1</dim>
				</port>
			</input>
			<output>
				<port id="2" precision="FP32" names="ComplexWaveNet_1/conv1d_12_1/convolution:0">
					<dim>-1</dim>
					<dim>256</dim>
					<dim>1</dim>
					<dim>2048</dim>
				</port>
			</output>
		</layer>
		<layer id="119" name="ComplexWaveNet_1/conv1d_12_1/convolution/Squeeze" type="Squeeze" version="opset1">
			<input>
				<port id="0" precision="FP32">
					<dim>-1</dim>
					<dim>256</dim>
					<dim>1</dim>
					<dim>2048</dim>
				</port>
				<port id="1" precision="I64">
					<dim>1</dim>
				</port>
			</input>
			<output>
				<port id="2" precision="FP32" names="ComplexWaveNet_1/conv1d_12_1/convolution/Squeeze:0">
					<dim>-1</dim>
					<dim>256</dim>
					<dim>2048</dim>
				</port>
			</output>
		</layer>
		<layer id="120" name="const_fold_opt__682_compressed" type="Const" version="opset1">
			<data element_type="f16" shape="1, 256, 1" offset="855954" size="512" />
			<output>
				<port id="0" precision="FP16" names="const_fold_opt__682">
					<dim>1</dim>
					<dim>256</dim>
					<dim>1</dim>
				</port>
			</output>
		</layer>
		<layer id="121" name="const_fold_opt__682" type="Convert" version="opset1">
			<data destination_type="f32" />
			<rt_info>
				<attribute name="decompression" version="0" />
			</rt_info>
			<input>
				<port id="0" precision="FP16">
					<dim>1</dim>
					<dim>256</dim>
					<dim>1</dim>
				</port>
			</input>
			<output>
				<port id="1" precision="FP32">
					<dim>1</dim>
					<dim>256</dim>
					<dim>1</dim>
				</port>
			</output>
		</layer>
		<layer id="122" name="ComplexWaveNet_1/conv1d_12_1/BiasAdd" type="Add" version="opset1">
			<data auto_broadcast="numpy" />
			<input>
				<port id="0" precision="FP32">
					<dim>-1</dim>
					<dim>256</dim>
					<dim>2048</dim>
				</port>
				<port id="1" precision="FP32">
					<dim>1</dim>
					<dim>256</dim>
					<dim>1</dim>
				</port>
			</input>
			<output>
				<port id="2" precision="FP32" names="ComplexWaveNet_1/conv1d_12_1/BiasAdd:0">
					<dim>-1</dim>
					<dim>256</dim>
					<dim>2048</dim>
				</port>
			</output>
		</layer>
		<layer id="123" name="ComplexWaveNet_1/add_5_1/Add_1" type="Add" version="opset1">
			<data auto_broadcast="numpy" />
			<input>
				<port id="0" precision="FP32">
					<dim>-1</dim>
					<dim>256</dim>
					<dim>2048</dim>
				</port>
				<port id="1" precision="FP32">
					<dim>-1</dim>
					<dim>256</dim>
					<dim>2048</dim>
				</port>
			</input>
			<output>
				<port id="2" precision="FP32" names="ComplexWaveNet_1/add_5_1/Add_1:0">
					<dim>-1</dim>
					<dim>256</dim>
					<dim>2048</dim>
				</port>
			</output>
		</layer>
		<layer id="124" name="ComplexWaveNet_1/conv1d_11_1/convolution/ExpandDims_1:0_compressed" type="Const" version="opset1">
			<data element_type="f16" shape="128, 128, 1, 1" offset="856466" size="32768" />
			<output>
				<port id="0" precision="FP16" names="ComplexWaveNet_1/conv1d_11_1/convolution/ExpandDims_1:0">
					<dim>128</dim>
					<dim>128</dim>
					<dim>1</dim>
					<dim>1</dim>
				</port>
			</output>
		</layer>
		<layer id="125" name="ComplexWaveNet_1/conv1d_11_1/convolution/ExpandDims_1:0" type="Convert" version="opset1">
			<data destination_type="f32" />
			<rt_info>
				<attribute name="decompression" version="0" />
			</rt_info>
			<input>
				<port id="0" precision="FP16">
					<dim>128</dim>
					<dim>128</dim>
					<dim>1</dim>
					<dim>1</dim>
				</port>
			</input>
			<output>
				<port id="1" precision="FP32">
					<dim>128</dim>
					<dim>128</dim>
					<dim>1</dim>
					<dim>1</dim>
				</port>
			</output>
		</layer>
		<layer id="126" name="ComplexWaveNet_1/conv1d_11_1/convolution" type="Convolution" version="opset1">
			<data strides="1, 1" dilations="1, 1" pads_begin="0, 0" pads_end="0, 0" auto_pad="explicit" />
			<input>
				<port id="0" precision="FP32">
					<dim>-1</dim>
					<dim>128</dim>
					<dim>1</dim>
					<dim>2048</dim>
				</port>
				<port id="1" precision="FP32">
					<dim>128</dim>
					<dim>128</dim>
					<dim>1</dim>
					<dim>1</dim>
				</port>
			</input>
			<output>
				<port id="2" precision="FP32" names="ComplexWaveNet_1/conv1d_11_1/convolution:0">
					<dim>-1</dim>
					<dim>128</dim>
					<dim>1</dim>
					<dim>2048</dim>
				</port>
			</output>
		</layer>
		<layer id="127" name="ComplexWaveNet_1/conv1d_11_1/convolution/Squeeze" type="Squeeze" version="opset1">
			<input>
				<port id="0" precision="FP32">
					<dim>-1</dim>
					<dim>128</dim>
					<dim>1</dim>
					<dim>2048</dim>
				</port>
				<port id="1" precision="I64">
					<dim>1</dim>
				</port>
			</input>
			<output>
				<port id="2" precision="FP32" names="ComplexWaveNet_1/conv1d_11_1/convolution/Squeeze:0">
					<dim>-1</dim>
					<dim>128</dim>
					<dim>2048</dim>
				</port>
			</output>
		</layer>
		<layer id="128" name="const_fold_opt__713_compressed" type="Const" version="opset1">
			<data element_type="f16" shape="1, 128, 1" offset="889234" size="256" />
			<output>
				<port id="0" precision="FP16" names="const_fold_opt__713">
					<dim>1</dim>
					<dim>128</dim>
					<dim>1</dim>
				</port>
			</output>
		</layer>
		<layer id="129" name="const_fold_opt__713" type="Convert" version="opset1">
			<data destination_type="f32" />
			<rt_info>
				<attribute name="decompression" version="0" />
			</rt_info>
			<input>
				<port id="0" precision="FP16">
					<dim>1</dim>
					<dim>128</dim>
					<dim>1</dim>
				</port>
			</input>
			<output>
				<port id="1" precision="FP32">
					<dim>1</dim>
					<dim>128</dim>
					<dim>1</dim>
				</port>
			</output>
		</layer>
		<layer id="130" name="ComplexWaveNet_1/conv1d_11_1/BiasAdd" type="Add" version="opset1">
			<data auto_broadcast="numpy" />
			<input>
				<port id="0" precision="FP32">
					<dim>-1</dim>
					<dim>128</dim>
					<dim>2048</dim>
				</port>
				<port id="1" precision="FP32">
					<dim>1</dim>
					<dim>128</dim>
					<dim>1</dim>
				</port>
			</input>
			<output>
				<port id="2" precision="FP32" names="ComplexWaveNet_1/conv1d_11_1/BiasAdd:0">
					<dim>-1</dim>
					<dim>128</dim>
					<dim>2048</dim>
				</port>
			</output>
		</layer>
		<layer id="131" name="ComplexWaveNet_1/add_2_1/Add" type="Add" version="opset1">
			<data auto_broadcast="numpy" />
			<input>
				<port id="0" precision="FP32">
					<dim>-1</dim>
					<dim>128</dim>
					<dim>2048</dim>
				</port>
				<port id="1" precision="FP32">
					<dim>-1</dim>
					<dim>128</dim>
					<dim>2048</dim>
				</port>
			</input>
			<output>
				<port id="2" precision="FP32" names="ComplexWaveNet_1/add_2_1/Add:0">
					<dim>-1</dim>
					<dim>128</dim>
					<dim>2048</dim>
				</port>
			</output>
		</layer>
		<layer id="132" name="Constant_383" type="Const" version="opset1">
			<data element_type="i64" shape="3" offset="889490" size="24" />
			<rt_info>
				<attribute name="precise" version="0" />
			</rt_info>
			<output>
				<port id="0" precision="I64">
					<dim>3</dim>
				</port>
			</output>
		</layer>
		<layer id="133" name="Constant_384" type="Const" version="opset1">
			<data element_type="i64" shape="3" offset="840" size="24" />
			<rt_info>
				<attribute name="precise" version="0" />
			</rt_info>
			<output>
				<port id="0" precision="I64">
					<dim>3</dim>
				</port>
			</output>
		</layer>
		<layer id="134" name="Constant_382_compressed" type="Const" version="opset1">
			<data element_type="f16" shape="" offset="864" size="2" />
			<output>
				<port id="0" precision="FP16" />
			</output>
		</layer>
		<layer id="135" name="Constant_382" type="Convert" version="opset1">
			<data destination_type="f32" />
			<rt_info>
				<attribute name="decompression" version="0" />
			</rt_info>
			<input>
				<port id="0" precision="FP16" />
			</input>
			<output>
				<port id="1" precision="FP32" />
			</output>
		</layer>
		<layer id="136" name="ComplexWaveNet_1/conv1d_13_1/Pad" type="Pad" version="opset12">
			<data pad_mode="constant" />
			<input>
				<port id="0" precision="FP32">
					<dim>-1</dim>
					<dim>128</dim>
					<dim>2048</dim>
				</port>
				<port id="1" precision="I64">
					<dim>3</dim>
				</port>
				<port id="2" precision="I64">
					<dim>3</dim>
				</port>
				<port id="3" precision="FP32" />
			</input>
			<output>
				<port id="4" precision="FP32" names="ComplexWaveNet_1/conv1d_13_1/Pad:0">
					<dim>-1</dim>
					<dim>128</dim>
					<dim>2064</dim>
				</port>
			</output>
		</layer>
		<layer id="137" name="ComplexWaveNet_1/conv1d_13_1/convolution/ExpandDims" type="Unsqueeze" version="opset1">
			<input>
				<port id="0" precision="FP32">
					<dim>-1</dim>
					<dim>128</dim>
					<dim>2064</dim>
				</port>
				<port id="1" precision="I64">
					<dim>1</dim>
				</port>
			</input>
			<output>
				<port id="2" precision="FP32" names="ComplexWaveNet_1/conv1d_13_1/convolution/ExpandDims:0">
					<dim>-1</dim>
					<dim>128</dim>
					<dim>1</dim>
					<dim>2064</dim>
				</port>
			</output>
		</layer>
		<layer id="138" name="ComplexWaveNet_1/conv1d_13_1/convolution/ExpandDims_1:0_compressed" type="Const" version="opset1">
			<data element_type="f16" shape="128, 128, 1, 3" offset="889514" size="98304" />
			<output>
				<port id="0" precision="FP16" names="ComplexWaveNet_1/conv1d_13_1/convolution/ExpandDims_1:0">
					<dim>128</dim>
					<dim>128</dim>
					<dim>1</dim>
					<dim>3</dim>
				</port>
			</output>
		</layer>
		<layer id="139" name="ComplexWaveNet_1/conv1d_13_1/convolution/ExpandDims_1:0" type="Convert" version="opset1">
			<data destination_type="f32" />
			<rt_info>
				<attribute name="decompression" version="0" />
			</rt_info>
			<input>
				<port id="0" precision="FP16">
					<dim>128</dim>
					<dim>128</dim>
					<dim>1</dim>
					<dim>3</dim>
				</port>
			</input>
			<output>
				<port id="1" precision="FP32">
					<dim>128</dim>
					<dim>128</dim>
					<dim>1</dim>
					<dim>3</dim>
				</port>
			</output>
		</layer>
		<layer id="140" name="ComplexWaveNet_1/conv1d_13_1/convolution" type="Convolution" version="opset1">
			<data strides="1, 1" dilations="1, 8" pads_begin="0, 0" pads_end="0, 0" auto_pad="explicit" />
			<input>
				<port id="0" precision="FP32">
					<dim>-1</dim>
					<dim>128</dim>
					<dim>1</dim>
					<dim>2064</dim>
				</port>
				<port id="1" precision="FP32">
					<dim>128</dim>
					<dim>128</dim>
					<dim>1</dim>
					<dim>3</dim>
				</port>
			</input>
			<output>
				<port id="2" precision="FP32" names="ComplexWaveNet_1/conv1d_13_1/convolution:0">
					<dim>-1</dim>
					<dim>128</dim>
					<dim>1</dim>
					<dim>2048</dim>
				</port>
			</output>
		</layer>
		<layer id="141" name="ComplexWaveNet_1/conv1d_13_1/convolution/Squeeze" type="Squeeze" version="opset1">
			<input>
				<port id="0" precision="FP32">
					<dim>-1</dim>
					<dim>128</dim>
					<dim>1</dim>
					<dim>2048</dim>
				</port>
				<port id="1" precision="I64">
					<dim>1</dim>
				</port>
			</input>
			<output>
				<port id="2" precision="FP32" names="ComplexWaveNet_1/conv1d_13_1/convolution/Squeeze:0">
					<dim>-1</dim>
					<dim>128</dim>
					<dim>2048</dim>
				</port>
			</output>
		</layer>
		<layer id="142" name="const_fold_opt__686_compressed" type="Const" version="opset1">
			<data element_type="f16" shape="1, 128, 1" offset="987818" size="256" />
			<output>
				<port id="0" precision="FP16" names="const_fold_opt__686">
					<dim>1</dim>
					<dim>128</dim>
					<dim>1</dim>
				</port>
			</output>
		</layer>
		<layer id="143" name="const_fold_opt__686" type="Convert" version="opset1">
			<data destination_type="f32" />
			<rt_info>
				<attribute name="decompression" version="0" />
			</rt_info>
			<input>
				<port id="0" precision="FP16">
					<dim>1</dim>
					<dim>128</dim>
					<dim>1</dim>
				</port>
			</input>
			<output>
				<port id="1" precision="FP32">
					<dim>1</dim>
					<dim>128</dim>
					<dim>1</dim>
				</port>
			</output>
		</layer>
		<layer id="144" name="ComplexWaveNet_1/conv1d_13_1/BiasAdd" type="Add" version="opset1">
			<data auto_broadcast="numpy" />
			<input>
				<port id="0" precision="FP32">
					<dim>-1</dim>
					<dim>128</dim>
					<dim>2048</dim>
				</port>
				<port id="1" precision="FP32">
					<dim>1</dim>
					<dim>128</dim>
					<dim>1</dim>
				</port>
			</input>
			<output>
				<port id="2" precision="FP32" names="ComplexWaveNet_1/conv1d_13_1/BiasAdd:0">
					<dim>-1</dim>
					<dim>128</dim>
					<dim>2048</dim>
				</port>
			</output>
		</layer>
		<layer id="145" name="ComplexWaveNet_1/conv1d_13_1/Tanh" type="Tanh" version="opset1">
			<input>
				<port id="0" precision="FP32">
					<dim>-1</dim>
					<dim>128</dim>
					<dim>2048</dim>
				</port>
			</input>
			<output>
				<port id="1" precision="FP32" names="ComplexWaveNet_1/conv1d_13_1/Tanh:0">
					<dim>-1</dim>
					<dim>128</dim>
					<dim>2048</dim>
				</port>
			</output>
		</layer>
		<layer id="146" name="ComplexWaveNet_1/conv1d_14_1/convolution/ExpandDims_1:0_compressed" type="Const" version="opset1">
			<data element_type="f16" shape="128, 128, 1, 3" offset="988074" size="98304" />
			<output>
				<port id="0" precision="FP16" names="ComplexWaveNet_1/conv1d_14_1/convolution/ExpandDims_1:0">
					<dim>128</dim>
					<dim>128</dim>
					<dim>1</dim>
					<dim>3</dim>
				</port>
			</output>
		</layer>
		<layer id="147" name="ComplexWaveNet_1/conv1d_14_1/convolution/ExpandDims_1:0" type="Convert" version="opset1">
			<data destination_type="f32" />
			<rt_info>
				<attribute name="decompression" version="0" />
			</rt_info>
			<input>
				<port id="0" precision="FP16">
					<dim>128</dim>
					<dim>128</dim>
					<dim>1</dim>
					<dim>3</dim>
				</port>
			</input>
			<output>
				<port id="1" precision="FP32">
					<dim>128</dim>
					<dim>128</dim>
					<dim>1</dim>
					<dim>3</dim>
				</port>
			</output>
		</layer>
		<layer id="148" name="ComplexWaveNet_1/conv1d_14_1/convolution" type="Convolution" version="opset1">
			<data strides="1, 1" dilations="1, 8" pads_begin="0, 0" pads_end="0, 0" auto_pad="explicit" />
			<input>
				<port id="0" precision="FP32">
					<dim>-1</dim>
					<dim>128</dim>
					<dim>1</dim>
					<dim>2064</dim>
				</port>
				<port id="1" precision="FP32">
					<dim>128</dim>
					<dim>128</dim>
					<dim>1</dim>
					<dim>3</dim>
				</port>
			</input>
			<output>
				<port id="2" precision="FP32" names="ComplexWaveNet_1/conv1d_14_1/convolution:0">
					<dim>-1</dim>
					<dim>128</dim>
					<dim>1</dim>
					<dim>2048</dim>
				</port>
			</output>
		</layer>
		<layer id="149" name="ComplexWaveNet_1/conv1d_14_1/convolution/Squeeze" type="Squeeze" version="opset1">
			<input>
				<port id="0" precision="FP32">
					<dim>-1</dim>
					<dim>128</dim>
					<dim>1</dim>
					<dim>2048</dim>
				</port>
				<port id="1" precision="I64">
					<dim>1</dim>
				</port>
			</input>
			<output>
				<port id="2" precision="FP32" names="ComplexWaveNet_1/conv1d_14_1/convolution/Squeeze:0">
					<dim>-1</dim>
					<dim>128</dim>
					<dim>2048</dim>
				</port>
			</output>
		</layer>
		<layer id="150" name="const_fold_opt__684_compressed" type="Const" version="opset1">
			<data element_type="f16" shape="1, 128, 1" offset="1086378" size="256" />
			<output>
				<port id="0" precision="FP16" names="const_fold_opt__684">
					<dim>1</dim>
					<dim>128</dim>
					<dim>1</dim>
				</port>
			</output>
		</layer>
		<layer id="151" name="const_fold_opt__684" type="Convert" version="opset1">
			<data destination_type="f32" />
			<rt_info>
				<attribute name="decompression" version="0" />
			</rt_info>
			<input>
				<port id="0" precision="FP16">
					<dim>1</dim>
					<dim>128</dim>
					<dim>1</dim>
				</port>
			</input>
			<output>
				<port id="1" precision="FP32">
					<dim>1</dim>
					<dim>128</dim>
					<dim>1</dim>
				</port>
			</output>
		</layer>
		<layer id="152" name="ComplexWaveNet_1/conv1d_14_1/BiasAdd" type="Add" version="opset1">
			<data auto_broadcast="numpy" />
			<input>
				<port id="0" precision="FP32">
					<dim>-1</dim>
					<dim>128</dim>
					<dim>2048</dim>
				</port>
				<port id="1" precision="FP32">
					<dim>1</dim>
					<dim>128</dim>
					<dim>1</dim>
				</port>
			</input>
			<output>
				<port id="2" precision="FP32" names="ComplexWaveNet_1/conv1d_14_1/BiasAdd:0">
					<dim>-1</dim>
					<dim>128</dim>
					<dim>2048</dim>
				</port>
			</output>
		</layer>
		<layer id="153" name="ComplexWaveNet_1/conv1d_14_1/Sigmoid" type="Sigmoid" version="opset1">
			<input>
				<port id="0" precision="FP32">
					<dim>-1</dim>
					<dim>128</dim>
					<dim>2048</dim>
				</port>
			</input>
			<output>
				<port id="1" precision="FP32" names="ComplexWaveNet_1/conv1d_14_1/Sigmoid:0">
					<dim>-1</dim>
					<dim>128</dim>
					<dim>2048</dim>
				</port>
			</output>
		</layer>
		<layer id="154" name="ComplexWaveNet_1/multiply_3_1/Mul" type="Multiply" version="opset1">
			<data auto_broadcast="numpy" />
			<input>
				<port id="0" precision="FP32">
					<dim>-1</dim>
					<dim>128</dim>
					<dim>2048</dim>
				</port>
				<port id="1" precision="FP32">
					<dim>-1</dim>
					<dim>128</dim>
					<dim>2048</dim>
				</port>
			</input>
			<output>
				<port id="2" precision="FP32" names="ComplexWaveNet_1/multiply_3_1/Mul:0">
					<dim>-1</dim>
					<dim>128</dim>
					<dim>2048</dim>
				</port>
			</output>
		</layer>
		<layer id="155" name="ComplexWaveNet_1/conv1d_15_1/convolution/ExpandDims" type="Unsqueeze" version="opset1">
			<input>
				<port id="0" precision="FP32">
					<dim>-1</dim>
					<dim>128</dim>
					<dim>2048</dim>
				</port>
				<port id="1" precision="I64">
					<dim>1</dim>
				</port>
			</input>
			<output>
				<port id="2" precision="FP32" names="ComplexWaveNet_1/conv1d_15_1/convolution/ExpandDims:0">
					<dim>-1</dim>
					<dim>128</dim>
					<dim>1</dim>
					<dim>2048</dim>
				</port>
			</output>
		</layer>
		<layer id="156" name="ComplexWaveNet_1/conv1d_16_1/convolution/ExpandDims_1:0_compressed" type="Const" version="opset1">
			<data element_type="f16" shape="256, 128, 1, 1" offset="1086634" size="65536" />
			<output>
				<port id="0" precision="FP16" names="ComplexWaveNet_1/conv1d_16_1/convolution/ExpandDims_1:0">
					<dim>256</dim>
					<dim>128</dim>
					<dim>1</dim>
					<dim>1</dim>
				</port>
			</output>
		</layer>
		<layer id="157" name="ComplexWaveNet_1/conv1d_16_1/convolution/ExpandDims_1:0" type="Convert" version="opset1">
			<data destination_type="f32" />
			<rt_info>
				<attribute name="decompression" version="0" />
			</rt_info>
			<input>
				<port id="0" precision="FP16">
					<dim>256</dim>
					<dim>128</dim>
					<dim>1</dim>
					<dim>1</dim>
				</port>
			</input>
			<output>
				<port id="1" precision="FP32">
					<dim>256</dim>
					<dim>128</dim>
					<dim>1</dim>
					<dim>1</dim>
				</port>
			</output>
		</layer>
		<layer id="158" name="ComplexWaveNet_1/conv1d_16_1/convolution" type="Convolution" version="opset1">
			<data strides="1, 1" dilations="1, 1" pads_begin="0, 0" pads_end="0, 0" auto_pad="explicit" />
			<input>
				<port id="0" precision="FP32">
					<dim>-1</dim>
					<dim>128</dim>
					<dim>1</dim>
					<dim>2048</dim>
				</port>
				<port id="1" precision="FP32">
					<dim>256</dim>
					<dim>128</dim>
					<dim>1</dim>
					<dim>1</dim>
				</port>
			</input>
			<output>
				<port id="2" precision="FP32" names="ComplexWaveNet_1/conv1d_16_1/convolution:0">
					<dim>-1</dim>
					<dim>256</dim>
					<dim>1</dim>
					<dim>2048</dim>
				</port>
			</output>
		</layer>
		<layer id="159" name="ComplexWaveNet_1/conv1d_16_1/convolution/Squeeze" type="Squeeze" version="opset1">
			<input>
				<port id="0" precision="FP32">
					<dim>-1</dim>
					<dim>256</dim>
					<dim>1</dim>
					<dim>2048</dim>
				</port>
				<port id="1" precision="I64">
					<dim>1</dim>
				</port>
			</input>
			<output>
				<port id="2" precision="FP32" names="ComplexWaveNet_1/conv1d_16_1/convolution/Squeeze:0">
					<dim>-1</dim>
					<dim>256</dim>
					<dim>2048</dim>
				</port>
			</output>
		</layer>
		<layer id="160" name="const_fold_opt__716_compressed" type="Const" version="opset1">
			<data element_type="f16" shape="1, 256, 1" offset="1152170" size="512" />
			<output>
				<port id="0" precision="FP16" names="const_fold_opt__716">
					<dim>1</dim>
					<dim>256</dim>
					<dim>1</dim>
				</port>
			</output>
		</layer>
		<layer id="161" name="const_fold_opt__716" type="Convert" version="opset1">
			<data destination_type="f32" />
			<rt_info>
				<attribute name="decompression" version="0" />
			</rt_info>
			<input>
				<port id="0" precision="FP16">
					<dim>1</dim>
					<dim>256</dim>
					<dim>1</dim>
				</port>
			</input>
			<output>
				<port id="1" precision="FP32">
					<dim>1</dim>
					<dim>256</dim>
					<dim>1</dim>
				</port>
			</output>
		</layer>
		<layer id="162" name="ComplexWaveNet_1/conv1d_16_1/BiasAdd" type="Add" version="opset1">
			<data auto_broadcast="numpy" />
			<input>
				<port id="0" precision="FP32">
					<dim>-1</dim>
					<dim>256</dim>
					<dim>2048</dim>
				</port>
				<port id="1" precision="FP32">
					<dim>1</dim>
					<dim>256</dim>
					<dim>1</dim>
				</port>
			</input>
			<output>
				<port id="2" precision="FP32" names="ComplexWaveNet_1/conv1d_16_1/BiasAdd:0">
					<dim>-1</dim>
					<dim>256</dim>
					<dim>2048</dim>
				</port>
			</output>
		</layer>
		<layer id="163" name="ComplexWaveNet_1/add_5_1/Add_2" type="Add" version="opset1">
			<data auto_broadcast="numpy" />
			<input>
				<port id="0" precision="FP32">
					<dim>-1</dim>
					<dim>256</dim>
					<dim>2048</dim>
				</port>
				<port id="1" precision="FP32">
					<dim>-1</dim>
					<dim>256</dim>
					<dim>2048</dim>
				</port>
			</input>
			<output>
				<port id="2" precision="FP32" names="ComplexWaveNet_1/add_5_1/Add_2:0">
					<dim>-1</dim>
					<dim>256</dim>
					<dim>2048</dim>
				</port>
			</output>
		</layer>
		<layer id="164" name="ComplexWaveNet_1/conv1d_15_1/convolution/ExpandDims_1:0_compressed" type="Const" version="opset1">
			<data element_type="f16" shape="128, 128, 1, 1" offset="1152682" size="32768" />
			<output>
				<port id="0" precision="FP16" names="ComplexWaveNet_1/conv1d_15_1/convolution/ExpandDims_1:0">
					<dim>128</dim>
					<dim>128</dim>
					<dim>1</dim>
					<dim>1</dim>
				</port>
			</output>
		</layer>
		<layer id="165" name="ComplexWaveNet_1/conv1d_15_1/convolution/ExpandDims_1:0" type="Convert" version="opset1">
			<data destination_type="f32" />
			<rt_info>
				<attribute name="decompression" version="0" />
			</rt_info>
			<input>
				<port id="0" precision="FP16">
					<dim>128</dim>
					<dim>128</dim>
					<dim>1</dim>
					<dim>1</dim>
				</port>
			</input>
			<output>
				<port id="1" precision="FP32">
					<dim>128</dim>
					<dim>128</dim>
					<dim>1</dim>
					<dim>1</dim>
				</port>
			</output>
		</layer>
		<layer id="166" name="ComplexWaveNet_1/conv1d_15_1/convolution" type="Convolution" version="opset1">
			<data strides="1, 1" dilations="1, 1" pads_begin="0, 0" pads_end="0, 0" auto_pad="explicit" />
			<input>
				<port id="0" precision="FP32">
					<dim>-1</dim>
					<dim>128</dim>
					<dim>1</dim>
					<dim>2048</dim>
				</port>
				<port id="1" precision="FP32">
					<dim>128</dim>
					<dim>128</dim>
					<dim>1</dim>
					<dim>1</dim>
				</port>
			</input>
			<output>
				<port id="2" precision="FP32" names="ComplexWaveNet_1/conv1d_15_1/convolution:0">
					<dim>-1</dim>
					<dim>128</dim>
					<dim>1</dim>
					<dim>2048</dim>
				</port>
			</output>
		</layer>
		<layer id="167" name="ComplexWaveNet_1/conv1d_15_1/convolution/Squeeze" type="Squeeze" version="opset1">
			<input>
				<port id="0" precision="FP32">
					<dim>-1</dim>
					<dim>128</dim>
					<dim>1</dim>
					<dim>2048</dim>
				</port>
				<port id="1" precision="I64">
					<dim>1</dim>
				</port>
			</input>
			<output>
				<port id="2" precision="FP32" names="ComplexWaveNet_1/conv1d_15_1/convolution/Squeeze:0">
					<dim>-1</dim>
					<dim>128</dim>
					<dim>2048</dim>
				</port>
			</output>
		</layer>
		<layer id="168" name="const_fold_opt__690_compressed" type="Const" version="opset1">
			<data element_type="f16" shape="1, 128, 1" offset="1185450" size="256" />
			<output>
				<port id="0" precision="FP16" names="const_fold_opt__690">
					<dim>1</dim>
					<dim>128</dim>
					<dim>1</dim>
				</port>
			</output>
		</layer>
		<layer id="169" name="const_fold_opt__690" type="Convert" version="opset1">
			<data destination_type="f32" />
			<rt_info>
				<attribute name="decompression" version="0" />
			</rt_info>
			<input>
				<port id="0" precision="FP16">
					<dim>1</dim>
					<dim>128</dim>
					<dim>1</dim>
				</port>
			</input>
			<output>
				<port id="1" precision="FP32">
					<dim>1</dim>
					<dim>128</dim>
					<dim>1</dim>
				</port>
			</output>
		</layer>
		<layer id="170" name="ComplexWaveNet_1/conv1d_15_1/BiasAdd" type="Add" version="opset1">
			<data auto_broadcast="numpy" />
			<input>
				<port id="0" precision="FP32">
					<dim>-1</dim>
					<dim>128</dim>
					<dim>2048</dim>
				</port>
				<port id="1" precision="FP32">
					<dim>1</dim>
					<dim>128</dim>
					<dim>1</dim>
				</port>
			</input>
			<output>
				<port id="2" precision="FP32" names="ComplexWaveNet_1/conv1d_15_1/BiasAdd:0">
					<dim>-1</dim>
					<dim>128</dim>
					<dim>2048</dim>
				</port>
			</output>
		</layer>
		<layer id="171" name="ComplexWaveNet_1/add_3_1/Add" type="Add" version="opset1">
			<data auto_broadcast="numpy" />
			<input>
				<port id="0" precision="FP32">
					<dim>-1</dim>
					<dim>128</dim>
					<dim>2048</dim>
				</port>
				<port id="1" precision="FP32">
					<dim>-1</dim>
					<dim>128</dim>
					<dim>2048</dim>
				</port>
			</input>
			<output>
				<port id="2" precision="FP32" names="ComplexWaveNet_1/add_3_1/Add:0">
					<dim>-1</dim>
					<dim>128</dim>
					<dim>2048</dim>
				</port>
			</output>
		</layer>
		<layer id="172" name="Constant_410" type="Const" version="opset1">
			<data element_type="i64" shape="3" offset="1185706" size="24" />
			<rt_info>
				<attribute name="precise" version="0" />
			</rt_info>
			<output>
				<port id="0" precision="I64">
					<dim>3</dim>
				</port>
			</output>
		</layer>
		<layer id="173" name="Constant_411" type="Const" version="opset1">
			<data element_type="i64" shape="3" offset="840" size="24" />
			<rt_info>
				<attribute name="precise" version="0" />
			</rt_info>
			<output>
				<port id="0" precision="I64">
					<dim>3</dim>
				</port>
			</output>
		</layer>
		<layer id="174" name="Constant_409_compressed" type="Const" version="opset1">
			<data element_type="f16" shape="" offset="864" size="2" />
			<output>
				<port id="0" precision="FP16" />
			</output>
		</layer>
		<layer id="175" name="Constant_409" type="Convert" version="opset1">
			<data destination_type="f32" />
			<rt_info>
				<attribute name="decompression" version="0" />
			</rt_info>
			<input>
				<port id="0" precision="FP16" />
			</input>
			<output>
				<port id="1" precision="FP32" />
			</output>
		</layer>
		<layer id="176" name="ComplexWaveNet_1/conv1d_18_1/Pad" type="Pad" version="opset12">
			<data pad_mode="constant" />
			<input>
				<port id="0" precision="FP32">
					<dim>-1</dim>
					<dim>128</dim>
					<dim>2048</dim>
				</port>
				<port id="1" precision="I64">
					<dim>3</dim>
				</port>
				<port id="2" precision="I64">
					<dim>3</dim>
				</port>
				<port id="3" precision="FP32" />
			</input>
			<output>
				<port id="4" precision="FP32" names="ComplexWaveNet_1/conv1d_18_1/Pad:0">
					<dim>-1</dim>
					<dim>128</dim>
					<dim>2080</dim>
				</port>
			</output>
		</layer>
		<layer id="177" name="ComplexWaveNet_1/conv1d_18_1/convolution/ExpandDims" type="Unsqueeze" version="opset1">
			<input>
				<port id="0" precision="FP32">
					<dim>-1</dim>
					<dim>128</dim>
					<dim>2080</dim>
				</port>
				<port id="1" precision="I64">
					<dim>1</dim>
				</port>
			</input>
			<output>
				<port id="2" precision="FP32" names="ComplexWaveNet_1/conv1d_18_1/convolution/ExpandDims:0">
					<dim>-1</dim>
					<dim>128</dim>
					<dim>1</dim>
					<dim>2080</dim>
				</port>
			</output>
		</layer>
		<layer id="178" name="ComplexWaveNet_1/conv1d_17_1/convolution/ExpandDims_1:0_compressed" type="Const" version="opset1">
			<data element_type="f16" shape="128, 128, 1, 3" offset="1185730" size="98304" />
			<output>
				<port id="0" precision="FP16" names="ComplexWaveNet_1/conv1d_17_1/convolution/ExpandDims_1:0">
					<dim>128</dim>
					<dim>128</dim>
					<dim>1</dim>
					<dim>3</dim>
				</port>
			</output>
		</layer>
		<layer id="179" name="ComplexWaveNet_1/conv1d_17_1/convolution/ExpandDims_1:0" type="Convert" version="opset1">
			<data destination_type="f32" />
			<rt_info>
				<attribute name="decompression" version="0" />
			</rt_info>
			<input>
				<port id="0" precision="FP16">
					<dim>128</dim>
					<dim>128</dim>
					<dim>1</dim>
					<dim>3</dim>
				</port>
			</input>
			<output>
				<port id="1" precision="FP32">
					<dim>128</dim>
					<dim>128</dim>
					<dim>1</dim>
					<dim>3</dim>
				</port>
			</output>
		</layer>
		<layer id="180" name="ComplexWaveNet_1/conv1d_17_1/convolution" type="Convolution" version="opset1">
			<data strides="1, 1" dilations="1, 16" pads_begin="0, 0" pads_end="0, 0" auto_pad="explicit" />
			<input>
				<port id="0" precision="FP32">
					<dim>-1</dim>
					<dim>128</dim>
					<dim>1</dim>
					<dim>2080</dim>
				</port>
				<port id="1" precision="FP32">
					<dim>128</dim>
					<dim>128</dim>
					<dim>1</dim>
					<dim>3</dim>
				</port>
			</input>
			<output>
				<port id="2" precision="FP32" names="ComplexWaveNet_1/conv1d_17_1/convolution:0">
					<dim>-1</dim>
					<dim>128</dim>
					<dim>1</dim>
					<dim>2048</dim>
				</port>
			</output>
		</layer>
		<layer id="181" name="ComplexWaveNet_1/conv1d_17_1/convolution/Squeeze" type="Squeeze" version="opset1">
			<input>
				<port id="0" precision="FP32">
					<dim>-1</dim>
					<dim>128</dim>
					<dim>1</dim>
					<dim>2048</dim>
				</port>
				<port id="1" precision="I64">
					<dim>1</dim>
				</port>
			</input>
			<output>
				<port id="2" precision="FP32" names="ComplexWaveNet_1/conv1d_17_1/convolution/Squeeze:0">
					<dim>-1</dim>
					<dim>128</dim>
					<dim>2048</dim>
				</port>
			</output>
		</layer>
		<layer id="182" name="const_fold_opt__693_compressed" type="Const" version="opset1">
			<data element_type="f16" shape="1, 128, 1" offset="1284034" size="256" />
			<output>
				<port id="0" precision="FP16" names="const_fold_opt__693">
					<dim>1</dim>
					<dim>128</dim>
					<dim>1</dim>
				</port>
			</output>
		</layer>
		<layer id="183" name="const_fold_opt__693" type="Convert" version="opset1">
			<data destination_type="f32" />
			<rt_info>
				<attribute name="decompression" version="0" />
			</rt_info>
			<input>
				<port id="0" precision="FP16">
					<dim>1</dim>
					<dim>128</dim>
					<dim>1</dim>
				</port>
			</input>
			<output>
				<port id="1" precision="FP32">
					<dim>1</dim>
					<dim>128</dim>
					<dim>1</dim>
				</port>
			</output>
		</layer>
		<layer id="184" name="ComplexWaveNet_1/conv1d_17_1/BiasAdd" type="Add" version="opset1">
			<data auto_broadcast="numpy" />
			<input>
				<port id="0" precision="FP32">
					<dim>-1</dim>
					<dim>128</dim>
					<dim>2048</dim>
				</port>
				<port id="1" precision="FP32">
					<dim>1</dim>
					<dim>128</dim>
					<dim>1</dim>
				</port>
			</input>
			<output>
				<port id="2" precision="FP32" names="ComplexWaveNet_1/conv1d_17_1/BiasAdd:0">
					<dim>-1</dim>
					<dim>128</dim>
					<dim>2048</dim>
				</port>
			</output>
		</layer>
		<layer id="185" name="ComplexWaveNet_1/conv1d_17_1/Tanh" type="Tanh" version="opset1">
			<input>
				<port id="0" precision="FP32">
					<dim>-1</dim>
					<dim>128</dim>
					<dim>2048</dim>
				</port>
			</input>
			<output>
				<port id="1" precision="FP32" names="ComplexWaveNet_1/conv1d_17_1/Tanh:0">
					<dim>-1</dim>
					<dim>128</dim>
					<dim>2048</dim>
				</port>
			</output>
		</layer>
		<layer id="186" name="ComplexWaveNet_1/conv1d_18_1/convolution/ExpandDims_1:0_compressed" type="Const" version="opset1">
			<data element_type="f16" shape="128, 128, 1, 3" offset="1284290" size="98304" />
			<output>
				<port id="0" precision="FP16" names="ComplexWaveNet_1/conv1d_18_1/convolution/ExpandDims_1:0">
					<dim>128</dim>
					<dim>128</dim>
					<dim>1</dim>
					<dim>3</dim>
				</port>
			</output>
		</layer>
		<layer id="187" name="ComplexWaveNet_1/conv1d_18_1/convolution/ExpandDims_1:0" type="Convert" version="opset1">
			<data destination_type="f32" />
			<rt_info>
				<attribute name="decompression" version="0" />
			</rt_info>
			<input>
				<port id="0" precision="FP16">
					<dim>128</dim>
					<dim>128</dim>
					<dim>1</dim>
					<dim>3</dim>
				</port>
			</input>
			<output>
				<port id="1" precision="FP32">
					<dim>128</dim>
					<dim>128</dim>
					<dim>1</dim>
					<dim>3</dim>
				</port>
			</output>
		</layer>
		<layer id="188" name="ComplexWaveNet_1/conv1d_18_1/convolution" type="Convolution" version="opset1">
			<data strides="1, 1" dilations="1, 16" pads_begin="0, 0" pads_end="0, 0" auto_pad="explicit" />
			<input>
				<port id="0" precision="FP32">
					<dim>-1</dim>
					<dim>128</dim>
					<dim>1</dim>
					<dim>2080</dim>
				</port>
				<port id="1" precision="FP32">
					<dim>128</dim>
					<dim>128</dim>
					<dim>1</dim>
					<dim>3</dim>
				</port>
			</input>
			<output>
				<port id="2" precision="FP32" names="ComplexWaveNet_1/conv1d_18_1/convolution:0">
					<dim>-1</dim>
					<dim>128</dim>
					<dim>1</dim>
					<dim>2048</dim>
				</port>
			</output>
		</layer>
		<layer id="189" name="ComplexWaveNet_1/conv1d_18_1/convolution/Squeeze" type="Squeeze" version="opset1">
			<input>
				<port id="0" precision="FP32">
					<dim>-1</dim>
					<dim>128</dim>
					<dim>1</dim>
					<dim>2048</dim>
				</port>
				<port id="1" precision="I64">
					<dim>1</dim>
				</port>
			</input>
			<output>
				<port id="2" precision="FP32" names="ComplexWaveNet_1/conv1d_18_1/convolution/Squeeze:0">
					<dim>-1</dim>
					<dim>128</dim>
					<dim>2048</dim>
				</port>
			</output>
		</layer>
		<layer id="190" name="const_fold_opt__691_compressed" type="Const" version="opset1">
			<data element_type="f16" shape="1, 128, 1" offset="1382594" size="256" />
			<output>
				<port id="0" precision="FP16" names="const_fold_opt__691">
					<dim>1</dim>
					<dim>128</dim>
					<dim>1</dim>
				</port>
			</output>
		</layer>
		<layer id="191" name="const_fold_opt__691" type="Convert" version="opset1">
			<data destination_type="f32" />
			<rt_info>
				<attribute name="decompression" version="0" />
			</rt_info>
			<input>
				<port id="0" precision="FP16">
					<dim>1</dim>
					<dim>128</dim>
					<dim>1</dim>
				</port>
			</input>
			<output>
				<port id="1" precision="FP32">
					<dim>1</dim>
					<dim>128</dim>
					<dim>1</dim>
				</port>
			</output>
		</layer>
		<layer id="192" name="ComplexWaveNet_1/conv1d_18_1/BiasAdd" type="Add" version="opset1">
			<data auto_broadcast="numpy" />
			<input>
				<port id="0" precision="FP32">
					<dim>-1</dim>
					<dim>128</dim>
					<dim>2048</dim>
				</port>
				<port id="1" precision="FP32">
					<dim>1</dim>
					<dim>128</dim>
					<dim>1</dim>
				</port>
			</input>
			<output>
				<port id="2" precision="FP32" names="ComplexWaveNet_1/conv1d_18_1/BiasAdd:0">
					<dim>-1</dim>
					<dim>128</dim>
					<dim>2048</dim>
				</port>
			</output>
		</layer>
		<layer id="193" name="ComplexWaveNet_1/conv1d_18_1/Sigmoid" type="Sigmoid" version="opset1">
			<input>
				<port id="0" precision="FP32">
					<dim>-1</dim>
					<dim>128</dim>
					<dim>2048</dim>
				</port>
			</input>
			<output>
				<port id="1" precision="FP32" names="ComplexWaveNet_1/conv1d_18_1/Sigmoid:0">
					<dim>-1</dim>
					<dim>128</dim>
					<dim>2048</dim>
				</port>
			</output>
		</layer>
		<layer id="194" name="ComplexWaveNet_1/multiply_4_1/Mul" type="Multiply" version="opset1">
			<data auto_broadcast="numpy" />
			<input>
				<port id="0" precision="FP32">
					<dim>-1</dim>
					<dim>128</dim>
					<dim>2048</dim>
				</port>
				<port id="1" precision="FP32">
					<dim>-1</dim>
					<dim>128</dim>
					<dim>2048</dim>
				</port>
			</input>
			<output>
				<port id="2" precision="FP32" names="ComplexWaveNet_1/multiply_4_1/Mul:0">
					<dim>-1</dim>
					<dim>128</dim>
					<dim>2048</dim>
				</port>
			</output>
		</layer>
		<layer id="195" name="ComplexWaveNet_1/conv1d_20_1/convolution/ExpandDims" type="Unsqueeze" version="opset1">
			<input>
				<port id="0" precision="FP32">
					<dim>-1</dim>
					<dim>128</dim>
					<dim>2048</dim>
				</port>
				<port id="1" precision="I64">
					<dim>1</dim>
				</port>
			</input>
			<output>
				<port id="2" precision="FP32" names="ComplexWaveNet_1/conv1d_20_1/convolution/ExpandDims:0">
					<dim>-1</dim>
					<dim>128</dim>
					<dim>1</dim>
					<dim>2048</dim>
				</port>
			</output>
		</layer>
		<layer id="196" name="ComplexWaveNet_1/conv1d_20_1/convolution/ExpandDims_1:0_compressed" type="Const" version="opset1">
			<data element_type="f16" shape="256, 128, 1, 1" offset="1382850" size="65536" />
			<output>
				<port id="0" precision="FP16" names="ComplexWaveNet_1/conv1d_20_1/convolution/ExpandDims_1:0">
					<dim>256</dim>
					<dim>128</dim>
					<dim>1</dim>
					<dim>1</dim>
				</port>
			</output>
		</layer>
		<layer id="197" name="ComplexWaveNet_1/conv1d_20_1/convolution/ExpandDims_1:0" type="Convert" version="opset1">
			<data destination_type="f32" />
			<rt_info>
				<attribute name="decompression" version="0" />
			</rt_info>
			<input>
				<port id="0" precision="FP16">
					<dim>256</dim>
					<dim>128</dim>
					<dim>1</dim>
					<dim>1</dim>
				</port>
			</input>
			<output>
				<port id="1" precision="FP32">
					<dim>256</dim>
					<dim>128</dim>
					<dim>1</dim>
					<dim>1</dim>
				</port>
			</output>
		</layer>
		<layer id="198" name="ComplexWaveNet_1/conv1d_20_1/convolution" type="Convolution" version="opset1">
			<data strides="1, 1" dilations="1, 1" pads_begin="0, 0" pads_end="0, 0" auto_pad="explicit" />
			<input>
				<port id="0" precision="FP32">
					<dim>-1</dim>
					<dim>128</dim>
					<dim>1</dim>
					<dim>2048</dim>
				</port>
				<port id="1" precision="FP32">
					<dim>256</dim>
					<dim>128</dim>
					<dim>1</dim>
					<dim>1</dim>
				</port>
			</input>
			<output>
				<port id="2" precision="FP32" names="ComplexWaveNet_1/conv1d_20_1/convolution:0">
					<dim>-1</dim>
					<dim>256</dim>
					<dim>1</dim>
					<dim>2048</dim>
				</port>
			</output>
		</layer>
		<layer id="199" name="ComplexWaveNet_1/conv1d_20_1/convolution/Squeeze" type="Squeeze" version="opset1">
			<input>
				<port id="0" precision="FP32">
					<dim>-1</dim>
					<dim>256</dim>
					<dim>1</dim>
					<dim>2048</dim>
				</port>
				<port id="1" precision="I64">
					<dim>1</dim>
				</port>
			</input>
			<output>
				<port id="2" precision="FP32" names="ComplexWaveNet_1/conv1d_20_1/convolution/Squeeze:0">
					<dim>-1</dim>
					<dim>256</dim>
					<dim>2048</dim>
				</port>
			</output>
		</layer>
		<layer id="200" name="const_fold_opt__694_compressed" type="Const" version="opset1">
			<data element_type="f16" shape="1, 256, 1" offset="1448386" size="512" />
			<output>
				<port id="0" precision="FP16" names="const_fold_opt__694">
					<dim>1</dim>
					<dim>256</dim>
					<dim>1</dim>
				</port>
			</output>
		</layer>
		<layer id="201" name="const_fold_opt__694" type="Convert" version="opset1">
			<data destination_type="f32" />
			<rt_info>
				<attribute name="decompression" version="0" />
			</rt_info>
			<input>
				<port id="0" precision="FP16">
					<dim>1</dim>
					<dim>256</dim>
					<dim>1</dim>
				</port>
			</input>
			<output>
				<port id="1" precision="FP32">
					<dim>1</dim>
					<dim>256</dim>
					<dim>1</dim>
				</port>
			</output>
		</layer>
		<layer id="202" name="ComplexWaveNet_1/conv1d_20_1/BiasAdd" type="Add" version="opset1">
			<data auto_broadcast="numpy" />
			<input>
				<port id="0" precision="FP32">
					<dim>-1</dim>
					<dim>256</dim>
					<dim>2048</dim>
				</port>
				<port id="1" precision="FP32">
					<dim>1</dim>
					<dim>256</dim>
					<dim>1</dim>
				</port>
			</input>
			<output>
				<port id="2" precision="FP32" names="ComplexWaveNet_1/conv1d_20_1/BiasAdd:0">
					<dim>-1</dim>
					<dim>256</dim>
					<dim>2048</dim>
				</port>
			</output>
		</layer>
		<layer id="203" name="ComplexWaveNet_1/add_5_1/Add_3" type="Add" version="opset1">
			<data auto_broadcast="numpy" />
			<input>
				<port id="0" precision="FP32">
					<dim>-1</dim>
					<dim>256</dim>
					<dim>2048</dim>
				</port>
				<port id="1" precision="FP32">
					<dim>-1</dim>
					<dim>256</dim>
					<dim>2048</dim>
				</port>
			</input>
			<output>
				<port id="2" precision="FP32" names="ComplexWaveNet_1/add_5_1/Add_3:0">
					<dim>-1</dim>
					<dim>256</dim>
					<dim>2048</dim>
				</port>
			</output>
		</layer>
		<layer id="204" name="ComplexWaveNet_1/activation_1/Relu" type="ReLU" version="opset1">
			<input>
				<port id="0" precision="FP32">
					<dim>-1</dim>
					<dim>256</dim>
					<dim>2048</dim>
				</port>
			</input>
			<output>
				<port id="1" precision="FP32" names="ComplexWaveNet_1/activation_1/Relu:0">
					<dim>-1</dim>
					<dim>256</dim>
					<dim>2048</dim>
				</port>
			</output>
		</layer>
		<layer id="205" name="ComplexWaveNet_1/conv1d_21_1/convolution/ExpandDims" type="Unsqueeze" version="opset1">
			<input>
				<port id="0" precision="FP32">
					<dim>-1</dim>
					<dim>256</dim>
					<dim>2048</dim>
				</port>
				<port id="1" precision="I64">
					<dim>1</dim>
				</port>
			</input>
			<output>
				<port id="2" precision="FP32" names="ComplexWaveNet_1/conv1d_21_1/convolution/ExpandDims:0">
					<dim>-1</dim>
					<dim>256</dim>
					<dim>1</dim>
					<dim>2048</dim>
				</port>
			</output>
		</layer>
		<layer id="206" name="ComplexWaveNet_1/conv1d_21_1/convolution/ExpandDims_1:0_compressed" type="Const" version="opset1">
			<data element_type="f16" shape="256, 256, 1, 1" offset="1448898" size="131072" />
			<output>
				<port id="0" precision="FP16" names="ComplexWaveNet_1/conv1d_21_1/convolution/ExpandDims_1:0">
					<dim>256</dim>
					<dim>256</dim>
					<dim>1</dim>
					<dim>1</dim>
				</port>
			</output>
		</layer>
		<layer id="207" name="ComplexWaveNet_1/conv1d_21_1/convolution/ExpandDims_1:0" type="Convert" version="opset1">
			<data destination_type="f32" />
			<rt_info>
				<attribute name="decompression" version="0" />
			</rt_info>
			<input>
				<port id="0" precision="FP16">
					<dim>256</dim>
					<dim>256</dim>
					<dim>1</dim>
					<dim>1</dim>
				</port>
			</input>
			<output>
				<port id="1" precision="FP32">
					<dim>256</dim>
					<dim>256</dim>
					<dim>1</dim>
					<dim>1</dim>
				</port>
			</output>
		</layer>
		<layer id="208" name="ComplexWaveNet_1/conv1d_21_1/convolution" type="Convolution" version="opset1">
			<data strides="1, 1" dilations="1, 1" pads_begin="0, 0" pads_end="0, 0" auto_pad="explicit" />
			<input>
				<port id="0" precision="FP32">
					<dim>-1</dim>
					<dim>256</dim>
					<dim>1</dim>
					<dim>2048</dim>
				</port>
				<port id="1" precision="FP32">
					<dim>256</dim>
					<dim>256</dim>
					<dim>1</dim>
					<dim>1</dim>
				</port>
			</input>
			<output>
				<port id="2" precision="FP32" names="ComplexWaveNet_1/conv1d_21_1/convolution:0">
					<dim>-1</dim>
					<dim>256</dim>
					<dim>1</dim>
					<dim>2048</dim>
				</port>
			</output>
		</layer>
		<layer id="209" name="ComplexWaveNet_1/conv1d_21_1/convolution/Squeeze" type="Squeeze" version="opset1">
			<input>
				<port id="0" precision="FP32">
					<dim>-1</dim>
					<dim>256</dim>
					<dim>1</dim>
					<dim>2048</dim>
				</port>
				<port id="1" precision="I64">
					<dim>1</dim>
				</port>
			</input>
			<output>
				<port id="2" precision="FP32" names="ComplexWaveNet_1/conv1d_21_1/convolution/Squeeze:0">
					<dim>-1</dim>
					<dim>256</dim>
					<dim>2048</dim>
				</port>
			</output>
		</layer>
		<layer id="210" name="const_fold_opt__696_compressed" type="Const" version="opset1">
			<data element_type="f16" shape="1, 256, 1" offset="1579970" size="512" />
			<output>
				<port id="0" precision="FP16" names="const_fold_opt__696">
					<dim>1</dim>
					<dim>256</dim>
					<dim>1</dim>
				</port>
			</output>
		</layer>
		<layer id="211" name="const_fold_opt__696" type="Convert" version="opset1">
			<data destination_type="f32" />
			<rt_info>
				<attribute name="decompression" version="0" />
			</rt_info>
			<input>
				<port id="0" precision="FP16">
					<dim>1</dim>
					<dim>256</dim>
					<dim>1</dim>
				</port>
			</input>
			<output>
				<port id="1" precision="FP32">
					<dim>1</dim>
					<dim>256</dim>
					<dim>1</dim>
				</port>
			</output>
		</layer>
		<layer id="212" name="ComplexWaveNet_1/conv1d_21_1/BiasAdd" type="Add" version="opset1">
			<data auto_broadcast="numpy" />
			<input>
				<port id="0" precision="FP32">
					<dim>-1</dim>
					<dim>256</dim>
					<dim>2048</dim>
				</port>
				<port id="1" precision="FP32">
					<dim>1</dim>
					<dim>256</dim>
					<dim>1</dim>
				</port>
			</input>
			<output>
				<port id="2" precision="FP32" names="ComplexWaveNet_1/conv1d_21_1/BiasAdd:0">
					<dim>-1</dim>
					<dim>256</dim>
					<dim>2048</dim>
				</port>
			</output>
		</layer>
		<layer id="213" name="ComplexWaveNet_1/conv1d_21_1/Relu" type="ReLU" version="opset1">
			<input>
				<port id="0" precision="FP32">
					<dim>-1</dim>
					<dim>256</dim>
					<dim>2048</dim>
				</port>
			</input>
			<output>
				<port id="1" precision="FP32" names="ComplexWaveNet_1/conv1d_21_1/Relu:0">
					<dim>-1</dim>
					<dim>256</dim>
					<dim>2048</dim>
				</port>
			</output>
		</layer>
		<layer id="214" name="Reshape_129_compressed" type="Const" version="opset1">
			<data element_type="f16" shape="2, 1, 1, 1, 2" offset="1580482" size="8" />
			<output>
				<port id="0" precision="FP16">
					<dim>2</dim>
					<dim>1</dim>
					<dim>1</dim>
					<dim>1</dim>
					<dim>2</dim>
				</port>
			</output>
		</layer>
		<layer id="215" name="Reshape_129" type="Convert" version="opset1">
			<data destination_type="f32" />
			<rt_info>
				<attribute name="decompression" version="0" />
			</rt_info>
			<input>
				<port id="0" precision="FP16">
					<dim>2</dim>
					<dim>1</dim>
					<dim>1</dim>
					<dim>1</dim>
					<dim>2</dim>
				</port>
			</input>
			<output>
				<port id="1" precision="FP32">
					<dim>2</dim>
					<dim>1</dim>
					<dim>1</dim>
					<dim>1</dim>
					<dim>2</dim>
				</port>
			</output>
		</layer>
		<layer id="216" name="ComplexWaveNet_1/lambda_1/conv1d" type="GroupConvolution" version="opset1">
			<data strides="1, 2" pads_begin="0, 0" pads_end="0, 0" dilations="1, 1" auto_pad="explicit" />
			<input>
				<port id="0" precision="FP32">
					<dim>-1</dim>
					<dim>2</dim>
					<dim>1</dim>
					<dim>2048</dim>
				</port>
				<port id="1" precision="FP32">
					<dim>2</dim>
					<dim>1</dim>
					<dim>1</dim>
					<dim>1</dim>
					<dim>2</dim>
				</port>
			</input>
			<output>
				<port id="2" precision="FP32" names="ComplexWaveNet_1/lambda_1/conv1d:0">
					<dim>-1</dim>
					<dim>2</dim>
					<dim>1</dim>
					<dim>1024</dim>
				</port>
			</output>
		</layer>
		<layer id="217" name="ComplexWaveNet_1/lambda_1/conv1d/Squeeze" type="Squeeze" version="opset1">
			<input>
				<port id="0" precision="FP32">
					<dim>-1</dim>
					<dim>2</dim>
					<dim>1</dim>
					<dim>1024</dim>
				</port>
				<port id="1" precision="I64">
					<dim>1</dim>
				</port>
			</input>
			<output>
				<port id="2" precision="FP32" names="ComplexWaveNet_1/lambda_1/conv1d/Squeeze:0">
					<dim>-1</dim>
					<dim>2</dim>
					<dim>1024</dim>
				</port>
			</output>
		</layer>
		<layer id="218" name="Reshape_80_compressed" type="Const" version="opset1">
			<data element_type="f16" shape="2, 1, 1, 1, 2" offset="1580490" size="8" />
			<output>
				<port id="0" precision="FP16">
					<dim>2</dim>
					<dim>1</dim>
					<dim>1</dim>
					<dim>1</dim>
					<dim>2</dim>
				</port>
			</output>
		</layer>
		<layer id="219" name="Reshape_80" type="Convert" version="opset1">
			<data destination_type="f32" />
			<rt_info>
				<attribute name="decompression" version="0" />
			</rt_info>
			<input>
				<port id="0" precision="FP16">
					<dim>2</dim>
					<dim>1</dim>
					<dim>1</dim>
					<dim>1</dim>
					<dim>2</dim>
				</port>
			</input>
			<output>
				<port id="1" precision="FP32">
					<dim>2</dim>
					<dim>1</dim>
					<dim>1</dim>
					<dim>1</dim>
					<dim>2</dim>
				</port>
			</output>
		</layer>
		<layer id="220" name="ComplexWaveNet_1/lambda_1/conv1d_1" type="GroupConvolution" version="opset1">
			<data strides="1, 2" pads_begin="0, 0" pads_end="0, 0" dilations="1, 1" auto_pad="explicit" />
			<input>
				<port id="0" precision="FP32">
					<dim>-1</dim>
					<dim>2</dim>
					<dim>1</dim>
					<dim>2048</dim>
				</port>
				<port id="1" precision="FP32">
					<dim>2</dim>
					<dim>1</dim>
					<dim>1</dim>
					<dim>1</dim>
					<dim>2</dim>
				</port>
			</input>
			<output>
				<port id="2" precision="FP32" names="ComplexWaveNet_1/lambda_1/conv1d_1:0">
					<dim>-1</dim>
					<dim>2</dim>
					<dim>1</dim>
					<dim>1024</dim>
				</port>
			</output>
		</layer>
		<layer id="221" name="ComplexWaveNet_1/lambda_1/conv1d_1/Squeeze" type="Squeeze" version="opset1">
			<input>
				<port id="0" precision="FP32">
					<dim>-1</dim>
					<dim>2</dim>
					<dim>1</dim>
					<dim>1024</dim>
				</port>
				<port id="1" precision="I64">
					<dim>1</dim>
				</port>
			</input>
			<output>
				<port id="2" precision="FP32" names="ComplexWaveNet_1/lambda_1/conv1d_1/Squeeze:0">
					<dim>-1</dim>
					<dim>2</dim>
					<dim>1024</dim>
				</port>
			</output>
		</layer>
		<layer id="222" name="ComplexWaveNet_1/lambda_1/concat" type="Concat" version="opset1">
			<data axis="1" />
			<input>
				<port id="0" precision="FP32">
					<dim>-1</dim>
					<dim>2</dim>
					<dim>1024</dim>
				</port>
				<port id="1" precision="FP32">
					<dim>-1</dim>
					<dim>2</dim>
					<dim>1024</dim>
				</port>
			</input>
			<output>
				<port id="2" precision="FP32" names="ComplexWaveNet_1/lambda_1/concat:0">
					<dim>-1</dim>
					<dim>4</dim>
					<dim>1024</dim>
				</port>
			</output>
		</layer>
		<layer id="223" name="Constant_171" type="Const" version="opset1">
			<data element_type="i64" shape="3" offset="1580498" size="24" />
			<output>
				<port id="0" precision="I64">
					<dim>3</dim>
				</port>
			</output>
		</layer>
		<layer id="224" name="Transpose__286" type="Transpose" version="opset1">
			<input>
				<port id="0" precision="FP32">
					<dim>-1</dim>
					<dim>4</dim>
					<dim>1024</dim>
				</port>
				<port id="1" precision="I64">
					<dim>3</dim>
				</port>
			</input>
			<output>
				<port id="2" precision="FP32" names="Transpose__286:0">
					<dim>-1</dim>
					<dim>1024</dim>
					<dim>4</dim>
				</port>
			</output>
		</layer>
		<layer id="225" name="Constant_3413" type="Const" version="opset1">
			<data element_type="i64" shape="3" offset="297058" size="24" />
			<rt_info>
				<attribute name="precise" version="0" />
			</rt_info>
			<output>
				<port id="0" precision="I64">
					<dim>3</dim>
				</port>
			</output>
		</layer>
		<layer id="226" name="ComplexWaveNet_1/reshape_1/Reshape" type="Reshape" version="opset1">
			<data special_zero="true" />
			<input>
				<port id="0" precision="FP32">
					<dim>-1</dim>
					<dim>1024</dim>
					<dim>4</dim>
				</port>
				<port id="1" precision="I64">
					<dim>3</dim>
				</port>
			</input>
			<output>
				<port id="2" precision="FP32" names="ComplexWaveNet_1/reshape_1/Reshape:0">
					<dim>-1</dim>
					<dim>1024</dim>
					<dim>4</dim>
				</port>
			</output>
		</layer>
		<layer id="227" name="ComplexWaveNet_1/conv1d_22_1/convolution/ExpandDims" type="Unsqueeze" version="opset1">
			<input>
				<port id="0" precision="FP32">
					<dim>-1</dim>
					<dim>1024</dim>
					<dim>4</dim>
				</port>
				<port id="1" precision="I64">
					<dim>1</dim>
				</port>
			</input>
			<output>
				<port id="2" precision="FP32" names="ComplexWaveNet_1/conv1d_22_1/convolution/ExpandDims:0">
					<dim>-1</dim>
					<dim>1</dim>
					<dim>1024</dim>
					<dim>4</dim>
				</port>
			</output>
		</layer>
		<layer id="228" name="Constant_196" type="Const" version="opset1">
			<data element_type="i64" shape="4" offset="8" size="32" />
			<output>
				<port id="0" precision="I64">
					<dim>4</dim>
				</port>
			</output>
		</layer>
		<layer id="229" name="ComplexWaveNet_1/conv1d_22_1/convolution__40" type="Transpose" version="opset1">
			<input>
				<port id="0" precision="FP32">
					<dim>-1</dim>
					<dim>1</dim>
					<dim>1024</dim>
					<dim>4</dim>
				</port>
				<port id="1" precision="I64">
					<dim>4</dim>
				</port>
			</input>
			<output>
				<port id="2" precision="FP32" names="ComplexWaveNet_1/conv1d_22_1/convolution__40:0">
					<dim>-1</dim>
					<dim>4</dim>
					<dim>1</dim>
					<dim>1024</dim>
				</port>
			</output>
		</layer>
		<layer id="230" name="ComplexWaveNet_1/conv1d_22_1/convolution/ExpandDims_1:0_compressed" type="Const" version="opset1">
			<data element_type="f16" shape="256, 4, 1, 1" offset="1580522" size="2048" />
			<output>
				<port id="0" precision="FP16" names="ComplexWaveNet_1/conv1d_22_1/convolution/ExpandDims_1:0">
					<dim>256</dim>
					<dim>4</dim>
					<dim>1</dim>
					<dim>1</dim>
				</port>
			</output>
		</layer>
		<layer id="231" name="ComplexWaveNet_1/conv1d_22_1/convolution/ExpandDims_1:0" type="Convert" version="opset1">
			<data destination_type="f32" />
			<rt_info>
				<attribute name="decompression" version="0" />
			</rt_info>
			<input>
				<port id="0" precision="FP16">
					<dim>256</dim>
					<dim>4</dim>
					<dim>1</dim>
					<dim>1</dim>
				</port>
			</input>
			<output>
				<port id="1" precision="FP32">
					<dim>256</dim>
					<dim>4</dim>
					<dim>1</dim>
					<dim>1</dim>
				</port>
			</output>
		</layer>
		<layer id="232" name="ComplexWaveNet_1/conv1d_22_1/convolution" type="Convolution" version="opset1">
			<data strides="1, 1" dilations="1, 1" pads_begin="0, 0" pads_end="0, 0" auto_pad="same_upper" />
			<input>
				<port id="0" precision="FP32">
					<dim>-1</dim>
					<dim>4</dim>
					<dim>1</dim>
					<dim>1024</dim>
				</port>
				<port id="1" precision="FP32">
					<dim>256</dim>
					<dim>4</dim>
					<dim>1</dim>
					<dim>1</dim>
				</port>
			</input>
			<output>
				<port id="2" precision="FP32" names="ComplexWaveNet_1/conv1d_22_1/convolution:0">
					<dim>-1</dim>
					<dim>256</dim>
					<dim>1</dim>
					<dim>1024</dim>
				</port>
			</output>
		</layer>
		<layer id="233" name="ComplexWaveNet_1/conv1d_22_1/convolution/Squeeze" type="Squeeze" version="opset1">
			<input>
				<port id="0" precision="FP32">
					<dim>-1</dim>
					<dim>256</dim>
					<dim>1</dim>
					<dim>1024</dim>
				</port>
				<port id="1" precision="I64">
					<dim>1</dim>
				</port>
			</input>
			<output>
				<port id="2" precision="FP32" names="ComplexWaveNet_1/conv1d_22_1/convolution/Squeeze:0">
					<dim>-1</dim>
					<dim>256</dim>
					<dim>1024</dim>
				</port>
			</output>
		</layer>
		<layer id="234" name="const_fold_opt__721_compressed" type="Const" version="opset1">
			<data element_type="f16" shape="1, 256, 1" offset="1582570" size="512" />
			<output>
				<port id="0" precision="FP16" names="const_fold_opt__721">
					<dim>1</dim>
					<dim>256</dim>
					<dim>1</dim>
				</port>
			</output>
		</layer>
		<layer id="235" name="const_fold_opt__721" type="Convert" version="opset1">
			<data destination_type="f32" />
			<rt_info>
				<attribute name="decompression" version="0" />
			</rt_info>
			<input>
				<port id="0" precision="FP16">
					<dim>1</dim>
					<dim>256</dim>
					<dim>1</dim>
				</port>
			</input>
			<output>
				<port id="1" precision="FP32">
					<dim>1</dim>
					<dim>256</dim>
					<dim>1</dim>
				</port>
			</output>
		</layer>
		<layer id="236" name="ComplexWaveNet_1/conv1d_22_1/BiasAdd" type="Add" version="opset1">
			<data auto_broadcast="numpy" />
			<input>
				<port id="0" precision="FP32">
					<dim>-1</dim>
					<dim>256</dim>
					<dim>1024</dim>
				</port>
				<port id="1" precision="FP32">
					<dim>1</dim>
					<dim>256</dim>
					<dim>1</dim>
				</port>
			</input>
			<output>
				<port id="2" precision="FP32" names="ComplexWaveNet_1/conv1d_22_1/BiasAdd:0">
					<dim>-1</dim>
					<dim>256</dim>
					<dim>1024</dim>
				</port>
			</output>
		</layer>
		<layer id="237" name="ComplexWaveNet_1/conv1d_22_1/Relu" type="ReLU" version="opset1">
			<input>
				<port id="0" precision="FP32">
					<dim>-1</dim>
					<dim>256</dim>
					<dim>1024</dim>
				</port>
			</input>
			<output>
				<port id="1" precision="FP32" names="ComplexWaveNet_1/conv1d_22_1/Relu:0">
					<dim>-1</dim>
					<dim>256</dim>
					<dim>1024</dim>
				</port>
			</output>
		</layer>
		<layer id="238" name="Constant_203" type="Const" version="opset1">
			<data element_type="i64" shape="3" offset="1580498" size="24" />
			<output>
				<port id="0" precision="I64">
					<dim>3</dim>
				</port>
			</output>
		</layer>
		<layer id="239" name="Transpose__296" type="Transpose" version="opset1">
			<input>
				<port id="0" precision="FP32">
					<dim>-1</dim>
					<dim>256</dim>
					<dim>1024</dim>
				</port>
				<port id="1" precision="I64">
					<dim>3</dim>
				</port>
			</input>
			<output>
				<port id="2" precision="FP32" names="Transpose__296:0">
					<dim>-1</dim>
					<dim>1024</dim>
					<dim>256</dim>
				</port>
			</output>
		</layer>
		<layer id="240" name="const_fold_opt__626" type="Const" version="opset1">
			<data element_type="i32" shape="1, 2" offset="1583082" size="8" />
			<rt_info>
				<attribute name="precise" version="0" />
			</rt_info>
			<output>
				<port id="0" precision="I32" names="const_fold_opt__626">
					<dim>1</dim>
					<dim>2</dim>
				</port>
			</output>
		</layer>
		<layer id="241" name="const_fold_opt__627" type="Const" version="opset1">
			<data element_type="i32" shape="1" offset="1583090" size="4" />
			<rt_info>
				<attribute name="precise" version="0" />
			</rt_info>
			<output>
				<port id="0" precision="I32" names="const_fold_opt__627">
					<dim>1</dim>
				</port>
			</output>
		</layer>
		<layer id="242" name="ComplexWaveNet_1/dynamic_padding_layer_1/strided_slice__6" type="Const" version="opset1">
			<data element_type="i32" shape="" offset="1583094" size="4" />
			<rt_info>
				<attribute name="precise" version="0" />
			</rt_info>
			<output>
				<port id="0" precision="I32" names="ComplexWaveNet_1/dynamic_padding_layer_1/strided_slice__6" />
			</output>
		</layer>
		<layer id="243" name="ShapeOf_3404" type="ShapeOf" version="opset3">
			<data output_type="i32" />
			<input>
				<port id="0" precision="FP32">
					<dim>-1</dim>
					<dim>1024</dim>
					<dim>256</dim>
				</port>
			</input>
			<output>
				<port id="1" precision="I32">
					<dim>3</dim>
				</port>
			</output>
		</layer>
		<layer id="244" name="Constant_3405" type="Const" version="opset1">
			<data element_type="i64" shape="1" offset="1583098" size="8" />
			<rt_info>
				<attribute name="precise" version="0" />
			</rt_info>
			<output>
				<port id="0" precision="I64">
					<dim>1</dim>
				</port>
			</output>
		</layer>
		<layer id="245" name="Constant_3406" type="Const" version="opset1">
			<data element_type="i64" shape="" offset="1583082" size="8" />
			<rt_info>
				<attribute name="precise" version="0" />
			</rt_info>
			<output>
				<port id="0" precision="I64" />
			</output>
		</layer>
		<layer id="246" name="Gather_3407" type="Gather" version="opset8">
			<data batch_dims="0" />
			<input>
				<port id="0" precision="I32">
					<dim>3</dim>
				</port>
				<port id="1" precision="I64">
					<dim>1</dim>
				</port>
				<port id="2" precision="I64" />
			</input>
			<output>
				<port id="3" precision="I32" names="ComplexWaveNet_1/dynamic_padding_layer_1/strided_slice_1:0">
					<dim>1</dim>
				</port>
			</output>
		</layer>
		<layer id="247" name="Squeeze_3410" type="Squeeze" version="opset1">
			<input>
				<port id="0" precision="I32">
					<dim>1</dim>
				</port>
			</input>
			<output>
				<port id="1" precision="I32" names="ComplexWaveNet_1/dynamic_padding_layer_1/strided_slice_1__51:0" />
			</output>
		</layer>
		<layer id="248" name="ComplexWaveNet_1/dynamic_padding_layer_1/sub" type="Subtract" version="opset1">
			<data auto_broadcast="numpy" />
			<input>
				<port id="0" precision="I32" />
				<port id="1" precision="I32" />
			</input>
			<output>
				<port id="2" precision="I32" names="ComplexWaveNet_1/dynamic_padding_layer_1/sub:0" />
			</output>
		</layer>
		<layer id="249" name="const_axes__50" type="Const" version="opset1">
			<data element_type="i64" shape="1" offset="1583082" size="8" />
			<rt_info>
				<attribute name="precise" version="0" />
			</rt_info>
			<output>
				<port id="0" precision="I64" names="const_axes__50">
					<dim>1</dim>
				</port>
			</output>
		</layer>
		<layer id="250" name="ComplexWaveNet_1/dynamic_padding_layer_1/Pad/paddings/1_Unsqueeze__56" type="Unsqueeze" version="opset1">
			<input>
				<port id="0" precision="I32" />
				<port id="1" precision="I64">
					<dim>1</dim>
				</port>
			</input>
			<output>
				<port id="2" precision="I32" names="ComplexWaveNet_1/dynamic_padding_layer_1/Pad/paddings/1_Unsqueeze__56:0">
					<dim>1</dim>
				</port>
			</output>
		</layer>
		<layer id="251" name="ComplexWaveNet_1/dynamic_padding_layer_1/Pad/paddings/1_Concat__57" type="Concat" version="opset1">
			<data axis="0" />
			<input>
				<port id="0" precision="I32">
					<dim>1</dim>
				</port>
				<port id="1" precision="I32">
					<dim>1</dim>
				</port>
			</input>
			<output>
				<port id="2" precision="I32" names="ComplexWaveNet_1/dynamic_padding_layer_1/Pad/paddings/1_Concat__57:0">
					<dim>2</dim>
				</port>
			</output>
		</layer>
		<layer id="252" name="ComplexWaveNet_1/dynamic_padding_layer_1/Pad/paddings_Unsqueeze__61" type="Unsqueeze" version="opset1">
			<input>
				<port id="0" precision="I32">
					<dim>2</dim>
				</port>
				<port id="1" precision="I64">
					<dim>1</dim>
				</port>
			</input>
			<output>
				<port id="2" precision="I32" names="ComplexWaveNet_1/dynamic_padding_layer_1/Pad/paddings_Unsqueeze__61:0">
					<dim>1</dim>
					<dim>2</dim>
				</port>
			</output>
		</layer>
		<layer id="253" name="ComplexWaveNet_1/dynamic_padding_layer_1/Pad/paddings_Concat__64" type="Concat" version="opset1">
			<data axis="0" />
			<input>
				<port id="0" precision="I32">
					<dim>1</dim>
					<dim>2</dim>
				</port>
				<port id="1" precision="I32">
					<dim>1</dim>
					<dim>2</dim>
				</port>
				<port id="2" precision="I32">
					<dim>1</dim>
					<dim>2</dim>
				</port>
			</input>
			<output>
				<port id="3" precision="I32" names="ComplexWaveNet_1/dynamic_padding_layer_1/Pad/paddings_Concat__64:0">
					<dim>3</dim>
					<dim>2</dim>
				</port>
			</output>
		</layer>
		<layer id="254" name="ComplexWaveNet_1/dynamic_padding_layer_1/Pad__65" type="Convert" version="opset1">
			<data destination_type="i64" />
			<input>
				<port id="0" precision="I32">
					<dim>3</dim>
					<dim>2</dim>
				</port>
			</input>
			<output>
				<port id="1" precision="I64" names="ComplexWaveNet_1/dynamic_padding_layer_1/Pad__65:0">
					<dim>3</dim>
					<dim>2</dim>
				</port>
			</output>
		</layer>
		<layer id="255" name="Constant_221" type="Const" version="opset1">
			<data element_type="i64" shape="2" offset="1583106" size="16" />
			<rt_info>
				<attribute name="precise" version="0" />
			</rt_info>
			<output>
				<port id="0" precision="I64">
					<dim>2</dim>
				</port>
			</output>
		</layer>
		<layer id="256" name="ComplexWaveNet_1/dynamic_padding_layer_1/Pad__66" type="Transpose" version="opset1">
			<input>
				<port id="0" precision="I64">
					<dim>3</dim>
					<dim>2</dim>
				</port>
				<port id="1" precision="I64">
					<dim>2</dim>
				</port>
			</input>
			<output>
				<port id="2" precision="I64" names="ComplexWaveNet_1/dynamic_padding_layer_1/Pad__66:0">
					<dim>2</dim>
					<dim>3</dim>
				</port>
			</output>
		</layer>
		<layer id="257" name="Constant_1007" type="Const" version="opset1">
			<data element_type="i64" shape="1" offset="1583122" size="8" />
			<rt_info>
				<attribute name="precise" version="0" />
			</rt_info>
			<output>
				<port id="0" precision="I64">
					<dim>1</dim>
				</port>
			</output>
		</layer>
		<layer id="258" name="ComplexWaveNet_1/dynamic_padding_layer_1/Pad__68" type="Reshape" version="opset1">
			<data special_zero="true" />
			<input>
				<port id="0" precision="I64">
					<dim>2</dim>
					<dim>3</dim>
				</port>
				<port id="1" precision="I64">
					<dim>1</dim>
				</port>
			</input>
			<output>
				<port id="2" precision="I64" names="ComplexWaveNet_1/dynamic_padding_layer_1/Pad__68:0">
					<dim>6</dim>
				</port>
			</output>
		</layer>
		<layer id="259" name="Constant_225" type="Const" version="opset1">
			<data element_type="i64" shape="" offset="1583082" size="8" />
			<rt_info>
				<attribute name="precise" version="0" />
			</rt_info>
			<output>
				<port id="0" precision="I64" />
			</output>
		</layer>
		<layer id="260" name="Split_226" type="Split" version="opset1">
			<data num_splits="2" />
			<input>
				<port id="0" precision="I64">
					<dim>6</dim>
				</port>
				<port id="1" precision="I64" />
			</input>
			<output>
				<port id="2" precision="I64">
					<dim>3</dim>
				</port>
				<port id="3" precision="I64">
					<dim>3</dim>
				</port>
			</output>
		</layer>
		<layer id="261" name="Constant_224_compressed" type="Const" version="opset1">
			<data element_type="f16" shape="" offset="864" size="2" />
			<output>
				<port id="0" precision="FP16" />
			</output>
		</layer>
		<layer id="262" name="Constant_224" type="Convert" version="opset1">
			<data destination_type="f32" />
			<rt_info>
				<attribute name="decompression" version="0" />
			</rt_info>
			<input>
				<port id="0" precision="FP16" />
			</input>
			<output>
				<port id="1" precision="FP32" />
			</output>
		</layer>
		<layer id="263" name="ComplexWaveNet_1/dynamic_padding_layer_1/Pad" type="Pad" version="opset12">
			<data pad_mode="constant" />
			<input>
				<port id="0" precision="FP32">
					<dim>-1</dim>
					<dim>1024</dim>
					<dim>256</dim>
				</port>
				<port id="1" precision="I64">
					<dim>3</dim>
				</port>
				<port id="2" precision="I64">
					<dim>3</dim>
				</port>
				<port id="3" precision="FP32" />
			</input>
			<output>
				<port id="4" precision="FP32" names="ComplexWaveNet_1/dynamic_padding_layer_1/Pad:0">
					<dim>-1</dim>
					<dim>2048</dim>
					<dim>256</dim>
				</port>
			</output>
		</layer>
		<layer id="264" name="Constant_296" type="Const" version="opset1">
			<data element_type="i64" shape="3" offset="1580498" size="24" />
			<output>
				<port id="0" precision="I64">
					<dim>3</dim>
				</port>
			</output>
		</layer>
		<layer id="265" name="Transpose__578" type="Transpose" version="opset1">
			<input>
				<port id="0" precision="FP32">
					<dim>-1</dim>
					<dim>2048</dim>
					<dim>256</dim>
				</port>
				<port id="1" precision="I64">
					<dim>3</dim>
				</port>
			</input>
			<output>
				<port id="2" precision="FP32" names="Transpose__578:0">
					<dim>-1</dim>
					<dim>256</dim>
					<dim>2048</dim>
				</port>
			</output>
		</layer>
		<layer id="266" name="ComplexWaveNet_1/concatenate_1/concat" type="Concat" version="opset1">
			<data axis="1" />
			<input>
				<port id="0" precision="FP32">
					<dim>-1</dim>
					<dim>256</dim>
					<dim>2048</dim>
				</port>
				<port id="1" precision="FP32">
					<dim>-1</dim>
					<dim>256</dim>
					<dim>2048</dim>
				</port>
			</input>
			<output>
				<port id="2" precision="FP32" names="ComplexWaveNet_1/concatenate_1/concat:0">
					<dim>-1</dim>
					<dim>512</dim>
					<dim>2048</dim>
				</port>
			</output>
		</layer>
		<layer id="267" name="ComplexWaveNet_1/conv1d_23_1/convolution/ExpandDims" type="Unsqueeze" version="opset1">
			<input>
				<port id="0" precision="FP32">
					<dim>-1</dim>
					<dim>512</dim>
					<dim>2048</dim>
				</port>
				<port id="1" precision="I64">
					<dim>1</dim>
				</port>
			</input>
			<output>
				<port id="2" precision="FP32" names="ComplexWaveNet_1/conv1d_23_1/convolution/ExpandDims:0">
					<dim>-1</dim>
					<dim>512</dim>
					<dim>1</dim>
					<dim>2048</dim>
				</port>
			</output>
		</layer>
		<layer id="268" name="ComplexWaveNet_1/conv1d_23_1/convolution/ExpandDims_1:0_compressed" type="Const" version="opset1">
			<data element_type="f16" shape="256, 512, 1, 1" offset="1583130" size="262144" />
			<output>
				<port id="0" precision="FP16" names="ComplexWaveNet_1/conv1d_23_1/convolution/ExpandDims_1:0">
					<dim>256</dim>
					<dim>512</dim>
					<dim>1</dim>
					<dim>1</dim>
				</port>
			</output>
		</layer>
		<layer id="269" name="ComplexWaveNet_1/conv1d_23_1/convolution/ExpandDims_1:0" type="Convert" version="opset1">
			<data destination_type="f32" />
			<rt_info>
				<attribute name="decompression" version="0" />
			</rt_info>
			<input>
				<port id="0" precision="FP16">
					<dim>256</dim>
					<dim>512</dim>
					<dim>1</dim>
					<dim>1</dim>
				</port>
			</input>
			<output>
				<port id="1" precision="FP32">
					<dim>256</dim>
					<dim>512</dim>
					<dim>1</dim>
					<dim>1</dim>
				</port>
			</output>
		</layer>
		<layer id="270" name="ComplexWaveNet_1/conv1d_23_1/convolution" type="Convolution" version="opset1">
			<data strides="1, 1" dilations="1, 1" pads_begin="0, 0" pads_end="0, 0" auto_pad="explicit" />
			<input>
				<port id="0" precision="FP32">
					<dim>-1</dim>
					<dim>512</dim>
					<dim>1</dim>
					<dim>2048</dim>
				</port>
				<port id="1" precision="FP32">
					<dim>256</dim>
					<dim>512</dim>
					<dim>1</dim>
					<dim>1</dim>
				</port>
			</input>
			<output>
				<port id="2" precision="FP32" names="ComplexWaveNet_1/conv1d_23_1/convolution:0">
					<dim>-1</dim>
					<dim>256</dim>
					<dim>1</dim>
					<dim>2048</dim>
				</port>
			</output>
		</layer>
		<layer id="271" name="ComplexWaveNet_1/conv1d_23_1/convolution/Squeeze" type="Squeeze" version="opset1">
			<input>
				<port id="0" precision="FP32">
					<dim>-1</dim>
					<dim>256</dim>
					<dim>1</dim>
					<dim>2048</dim>
				</port>
				<port id="1" precision="I64">
					<dim>1</dim>
				</port>
			</input>
			<output>
				<port id="2" precision="FP32" names="ComplexWaveNet_1/conv1d_23_1/convolution/Squeeze:0">
					<dim>-1</dim>
					<dim>256</dim>
					<dim>2048</dim>
				</port>
			</output>
		</layer>
		<layer id="272" name="const_fold_opt__719_compressed" type="Const" version="opset1">
			<data element_type="f16" shape="1, 256, 1" offset="1845274" size="512" />
			<output>
				<port id="0" precision="FP16" names="const_fold_opt__719">
					<dim>1</dim>
					<dim>256</dim>
					<dim>1</dim>
				</port>
			</output>
		</layer>
		<layer id="273" name="const_fold_opt__719" type="Convert" version="opset1">
			<data destination_type="f32" />
			<rt_info>
				<attribute name="decompression" version="0" />
			</rt_info>
			<input>
				<port id="0" precision="FP16">
					<dim>1</dim>
					<dim>256</dim>
					<dim>1</dim>
				</port>
			</input>
			<output>
				<port id="1" precision="FP32">
					<dim>1</dim>
					<dim>256</dim>
					<dim>1</dim>
				</port>
			</output>
		</layer>
		<layer id="274" name="ComplexWaveNet_1/conv1d_23_1/BiasAdd" type="Add" version="opset1">
			<data auto_broadcast="numpy" />
			<input>
				<port id="0" precision="FP32">
					<dim>-1</dim>
					<dim>256</dim>
					<dim>2048</dim>
				</port>
				<port id="1" precision="FP32">
					<dim>1</dim>
					<dim>256</dim>
					<dim>1</dim>
				</port>
			</input>
			<output>
				<port id="2" precision="FP32" names="ComplexWaveNet_1/conv1d_23_1/BiasAdd:0">
					<dim>-1</dim>
					<dim>256</dim>
					<dim>2048</dim>
				</port>
			</output>
		</layer>
		<layer id="275" name="ComplexWaveNet_1/conv1d_23_1/Relu" type="ReLU" version="opset1">
			<input>
				<port id="0" precision="FP32">
					<dim>-1</dim>
					<dim>256</dim>
					<dim>2048</dim>
				</port>
			</input>
			<output>
				<port id="1" precision="FP32" names="ComplexWaveNet_1/conv1d_23_1/Relu:0">
					<dim>-1</dim>
					<dim>256</dim>
					<dim>2048</dim>
				</port>
			</output>
		</layer>
		<layer id="276" name="ComplexWaveNet_1/conv1d_24_1/convolution/ExpandDims" type="Unsqueeze" version="opset1">
			<input>
				<port id="0" precision="FP32">
					<dim>-1</dim>
					<dim>256</dim>
					<dim>2048</dim>
				</port>
				<port id="1" precision="I64">
					<dim>1</dim>
				</port>
			</input>
			<output>
				<port id="2" precision="FP32" names="ComplexWaveNet_1/conv1d_24_1/convolution/ExpandDims:0">
					<dim>-1</dim>
					<dim>256</dim>
					<dim>1</dim>
					<dim>2048</dim>
				</port>
			</output>
		</layer>
		<layer id="277" name="ComplexWaveNet_1/conv1d_24_1/convolution/ExpandDims_1:0_compressed" type="Const" version="opset1">
			<data element_type="f16" shape="2, 256, 1, 1" offset="1845786" size="1024" />
			<output>
				<port id="0" precision="FP16" names="ComplexWaveNet_1/conv1d_24_1/convolution/ExpandDims_1:0">
					<dim>2</dim>
					<dim>256</dim>
					<dim>1</dim>
					<dim>1</dim>
				</port>
			</output>
		</layer>
		<layer id="278" name="ComplexWaveNet_1/conv1d_24_1/convolution/ExpandDims_1:0" type="Convert" version="opset1">
			<data destination_type="f32" />
			<rt_info>
				<attribute name="decompression" version="0" />
			</rt_info>
			<input>
				<port id="0" precision="FP16">
					<dim>2</dim>
					<dim>256</dim>
					<dim>1</dim>
					<dim>1</dim>
				</port>
			</input>
			<output>
				<port id="1" precision="FP32">
					<dim>2</dim>
					<dim>256</dim>
					<dim>1</dim>
					<dim>1</dim>
				</port>
			</output>
		</layer>
		<layer id="279" name="ComplexWaveNet_1/conv1d_24_1/convolution" type="Convolution" version="opset1">
			<data strides="1, 1" dilations="1, 1" pads_begin="0, 0" pads_end="0, 0" auto_pad="explicit" />
			<input>
				<port id="0" precision="FP32">
					<dim>-1</dim>
					<dim>256</dim>
					<dim>1</dim>
					<dim>2048</dim>
				</port>
				<port id="1" precision="FP32">
					<dim>2</dim>
					<dim>256</dim>
					<dim>1</dim>
					<dim>1</dim>
				</port>
			</input>
			<output>
				<port id="2" precision="FP32" names="ComplexWaveNet_1/conv1d_24_1/convolution:0">
					<dim>-1</dim>
					<dim>2</dim>
					<dim>1</dim>
					<dim>2048</dim>
				</port>
			</output>
		</layer>
		<layer id="280" name="ComplexWaveNet_1/conv1d_24_1/convolution/Squeeze" type="Squeeze" version="opset1">
			<input>
				<port id="0" precision="FP32">
					<dim>-1</dim>
					<dim>2</dim>
					<dim>1</dim>
					<dim>2048</dim>
				</port>
				<port id="1" precision="I64">
					<dim>1</dim>
				</port>
			</input>
			<output>
				<port id="2" precision="FP32" names="ComplexWaveNet_1/conv1d_24_1/convolution/Squeeze:0">
					<dim>-1</dim>
					<dim>2</dim>
					<dim>2048</dim>
				</port>
			</output>
		</layer>
		<layer id="281" name="const_fold_opt__702_compressed" type="Const" version="opset1">
			<data element_type="f16" shape="1, 2, 1" offset="1846810" size="4" />
			<output>
				<port id="0" precision="FP16" names="const_fold_opt__702">
					<dim>1</dim>
					<dim>2</dim>
					<dim>1</dim>
				</port>
			</output>
		</layer>
		<layer id="282" name="const_fold_opt__702" type="Convert" version="opset1">
			<data destination_type="f32" />
			<rt_info>
				<attribute name="decompression" version="0" />
			</rt_info>
			<input>
				<port id="0" precision="FP16">
					<dim>1</dim>
					<dim>2</dim>
					<dim>1</dim>
				</port>
			</input>
			<output>
				<port id="1" precision="FP32">
					<dim>1</dim>
					<dim>2</dim>
					<dim>1</dim>
				</port>
			</output>
		</layer>
		<layer id="283" name="ComplexWaveNet_1/conv1d_24_1/BiasAdd" type="Add" version="opset1">
			<data auto_broadcast="numpy" />
			<input>
				<port id="0" precision="FP32">
					<dim>-1</dim>
					<dim>2</dim>
					<dim>2048</dim>
				</port>
				<port id="1" precision="FP32">
					<dim>1</dim>
					<dim>2</dim>
					<dim>1</dim>
				</port>
			</input>
			<output>
				<port id="2" precision="FP32" names="ComplexWaveNet_1/conv1d_24_1/BiasAdd:0">
					<dim>-1</dim>
					<dim>2</dim>
					<dim>2048</dim>
				</port>
			</output>
		</layer>
		<layer id="284" name="ComplexWaveNet_1/conv1d_24_1/Tanh" type="Tanh" version="opset1">
			<input>
				<port id="0" precision="FP32">
					<dim>-1</dim>
					<dim>2</dim>
					<dim>2048</dim>
				</port>
			</input>
			<output>
				<port id="1" precision="FP32" names="ComplexWaveNet_1/conv1d_24_1/Tanh:0">
					<dim>-1</dim>
					<dim>2</dim>
					<dim>2048</dim>
				</port>
			</output>
		</layer>
		<layer id="285" name="Constant_451" type="Const" version="opset1">
			<data element_type="i64" shape="3" offset="1580498" size="24" />
			<output>
				<port id="0" precision="I64">
					<dim>3</dim>
				</port>
			</output>
		</layer>
		<layer id="286" name="Transpose__512" type="Transpose" version="opset1">
			<input>
				<port id="0" precision="FP32">
					<dim>-1</dim>
					<dim>2</dim>
					<dim>2048</dim>
				</port>
				<port id="1" precision="I64">
					<dim>3</dim>
				</port>
			</input>
			<output>
				<port id="2" precision="FP32" names="Transpose__512:0">
					<dim>-1</dim>
					<dim>2048</dim>
					<dim>2</dim>
				</port>
			</output>
		</layer>
		<layer id="287" name="ComplexWaveNet_1/reshape_1_2/Reshape_shape__723" type="Const" version="opset1">
			<data element_type="i64" shape="3" offset="1846814" size="24" />
			<rt_info>
				<attribute name="precise" version="0" />
			</rt_info>
			<output>
				<port id="0" precision="I64" names="ComplexWaveNet_1/reshape_1_2/Reshape_shape__723">
					<dim>3</dim>
				</port>
			</output>
		</layer>
		<layer id="288" name="reshape_1" type="Reshape" version="opset1">
			<data special_zero="true" />
			<input>
				<port id="0" precision="FP32">
					<dim>-1</dim>
					<dim>2048</dim>
					<dim>2</dim>
				</port>
				<port id="1" precision="I64">
					<dim>3</dim>
				</port>
			</input>
			<output>
				<port id="2" precision="FP32" names="reshape_1">
					<dim>-1</dim>
					<dim>2048</dim>
					<dim>2</dim>
				</port>
			</output>
		</layer>
		<layer id="289" name="reshape_1/sink_port_0" type="Result" version="opset1" output_names="reshape_1">
			<input>
				<port id="0" precision="FP32">
					<dim>-1</dim>
					<dim>2048</dim>
					<dim>2</dim>
				</port>
			</input>
		</layer>
	</layers>
	<edges>
		<edge from-layer="0" from-port="0" to-layer="2" to-port="0" />
		<edge from-layer="1" from-port="0" to-layer="2" to-port="1" />
		<edge from-layer="1" from-port="0" to-layer="227" to-port="1" />
		<edge from-layer="2" from-port="2" to-layer="4" to-port="0" />
		<edge from-layer="3" from-port="0" to-layer="4" to-port="1" />
		<edge from-layer="4" from-port="2" to-layer="7" to-port="0" />
		<edge from-layer="4" from-port="2" to-layer="220" to-port="0" />
		<edge from-layer="4" from-port="2" to-layer="216" to-port="0" />
		<edge from-layer="5" from-port="0" to-layer="6" to-port="0" />
		<edge from-layer="6" from-port="1" to-layer="7" to-port="1" />
		<edge from-layer="7" from-port="2" to-layer="9" to-port="0" />
		<edge from-layer="8" from-port="0" to-layer="9" to-port="1" />
		<edge from-layer="8" from-port="0" to-layer="119" to-port="1" />
		<edge from-layer="8" from-port="0" to-layer="87" to-port="1" />
		<edge from-layer="8" from-port="0" to-layer="47" to-port="1" />
		<edge from-layer="8" from-port="0" to-layer="69" to-port="1" />
		<edge from-layer="8" from-port="0" to-layer="280" to-port="1" />
		<edge from-layer="8" from-port="0" to-layer="75" to-port="1" />
		<edge from-layer="8" from-port="0" to-layer="177" to-port="1" />
		<edge from-layer="8" from-port="0" to-layer="61" to-port="1" />
		<edge from-layer="8" from-port="0" to-layer="18" to-port="1" />
		<edge from-layer="8" from-port="0" to-layer="57" to-port="1" />
		<edge from-layer="8" from-port="0" to-layer="276" to-port="1" />
		<edge from-layer="8" from-port="0" to-layer="271" to-port="1" />
		<edge from-layer="8" from-port="0" to-layer="267" to-port="1" />
		<edge from-layer="8" from-port="0" to-layer="22" to-port="1" />
		<edge from-layer="8" from-port="0" to-layer="233" to-port="1" />
		<edge from-layer="8" from-port="0" to-layer="221" to-port="1" />
		<edge from-layer="8" from-port="0" to-layer="217" to-port="1" />
		<edge from-layer="8" from-port="0" to-layer="209" to-port="1" />
		<edge from-layer="8" from-port="0" to-layer="205" to-port="1" />
		<edge from-layer="8" from-port="0" to-layer="30" to-port="1" />
		<edge from-layer="8" from-port="0" to-layer="199" to-port="1" />
		<edge from-layer="8" from-port="0" to-layer="195" to-port="1" />
		<edge from-layer="8" from-port="0" to-layer="189" to-port="1" />
		<edge from-layer="8" from-port="0" to-layer="181" to-port="1" />
		<edge from-layer="8" from-port="0" to-layer="167" to-port="1" />
		<edge from-layer="8" from-port="0" to-layer="159" to-port="1" />
		<edge from-layer="8" from-port="0" to-layer="155" to-port="1" />
		<edge from-layer="8" from-port="0" to-layer="36" to-port="1" />
		<edge from-layer="8" from-port="0" to-layer="149" to-port="1" />
		<edge from-layer="8" from-port="0" to-layer="141" to-port="1" />
		<edge from-layer="8" from-port="0" to-layer="137" to-port="1" />
		<edge from-layer="8" from-port="0" to-layer="127" to-port="1" />
		<edge from-layer="8" from-port="0" to-layer="40" to-port="1" />
		<edge from-layer="8" from-port="0" to-layer="97" to-port="1" />
		<edge from-layer="8" from-port="0" to-layer="101" to-port="1" />
		<edge from-layer="8" from-port="0" to-layer="109" to-port="1" />
		<edge from-layer="8" from-port="0" to-layer="79" to-port="1" />
		<edge from-layer="8" from-port="0" to-layer="115" to-port="1" />
		<edge from-layer="9" from-port="2" to-layer="12" to-port="0" />
		<edge from-layer="10" from-port="0" to-layer="11" to-port="0" />
		<edge from-layer="11" from-port="1" to-layer="12" to-port="1" />
		<edge from-layer="12" from-port="2" to-layer="17" to-port="0" />
		<edge from-layer="12" from-port="2" to-layer="51" to-port="0" />
		<edge from-layer="13" from-port="0" to-layer="17" to-port="1" />
		<edge from-layer="14" from-port="0" to-layer="17" to-port="2" />
		<edge from-layer="15" from-port="0" to-layer="16" to-port="0" />
		<edge from-layer="16" from-port="1" to-layer="17" to-port="3" />
		<edge from-layer="17" from-port="4" to-layer="18" to-port="0" />
		<edge from-layer="18" from-port="2" to-layer="29" to-port="0" />
		<edge from-layer="18" from-port="2" to-layer="21" to-port="0" />
		<edge from-layer="19" from-port="0" to-layer="20" to-port="0" />
		<edge from-layer="20" from-port="1" to-layer="21" to-port="1" />
		<edge from-layer="21" from-port="2" to-layer="22" to-port="0" />
		<edge from-layer="22" from-port="2" to-layer="25" to-port="0" />
		<edge from-layer="23" from-port="0" to-layer="24" to-port="0" />
		<edge from-layer="24" from-port="1" to-layer="25" to-port="1" />
		<edge from-layer="25" from-port="2" to-layer="26" to-port="0" />
		<edge from-layer="26" from-port="1" to-layer="35" to-port="0" />
		<edge from-layer="27" from-port="0" to-layer="28" to-port="0" />
		<edge from-layer="28" from-port="1" to-layer="29" to-port="1" />
		<edge from-layer="29" from-port="2" to-layer="30" to-port="0" />
		<edge from-layer="30" from-port="2" to-layer="33" to-port="0" />
		<edge from-layer="31" from-port="0" to-layer="32" to-port="0" />
		<edge from-layer="32" from-port="1" to-layer="33" to-port="1" />
		<edge from-layer="33" from-port="2" to-layer="34" to-port="0" />
		<edge from-layer="34" from-port="1" to-layer="35" to-port="1" />
		<edge from-layer="35" from-port="2" to-layer="36" to-port="0" />
		<edge from-layer="36" from-port="2" to-layer="46" to-port="0" />
		<edge from-layer="36" from-port="2" to-layer="39" to-port="0" />
		<edge from-layer="37" from-port="0" to-layer="38" to-port="0" />
		<edge from-layer="38" from-port="1" to-layer="39" to-port="1" />
		<edge from-layer="39" from-port="2" to-layer="40" to-port="0" />
		<edge from-layer="40" from-port="2" to-layer="43" to-port="0" />
		<edge from-layer="41" from-port="0" to-layer="42" to-port="0" />
		<edge from-layer="42" from-port="1" to-layer="43" to-port="1" />
		<edge from-layer="43" from-port="2" to-layer="83" to-port="0" />
		<edge from-layer="44" from-port="0" to-layer="45" to-port="0" />
		<edge from-layer="45" from-port="1" to-layer="46" to-port="1" />
		<edge from-layer="46" from-port="2" to-layer="47" to-port="0" />
		<edge from-layer="47" from-port="2" to-layer="50" to-port="0" />
		<edge from-layer="48" from-port="0" to-layer="49" to-port="0" />
		<edge from-layer="49" from-port="1" to-layer="50" to-port="1" />
		<edge from-layer="50" from-port="2" to-layer="51" to-port="1" />
		<edge from-layer="51" from-port="2" to-layer="91" to-port="0" />
		<edge from-layer="51" from-port="2" to-layer="56" to-port="0" />
		<edge from-layer="52" from-port="0" to-layer="56" to-port="1" />
		<edge from-layer="53" from-port="0" to-layer="56" to-port="2" />
		<edge from-layer="54" from-port="0" to-layer="55" to-port="0" />
		<edge from-layer="55" from-port="1" to-layer="56" to-port="3" />
		<edge from-layer="56" from-port="4" to-layer="57" to-port="0" />
		<edge from-layer="57" from-port="2" to-layer="68" to-port="0" />
		<edge from-layer="57" from-port="2" to-layer="60" to-port="0" />
		<edge from-layer="58" from-port="0" to-layer="59" to-port="0" />
		<edge from-layer="59" from-port="1" to-layer="60" to-port="1" />
		<edge from-layer="60" from-port="2" to-layer="61" to-port="0" />
		<edge from-layer="61" from-port="2" to-layer="64" to-port="0" />
		<edge from-layer="62" from-port="0" to-layer="63" to-port="0" />
		<edge from-layer="63" from-port="1" to-layer="64" to-port="1" />
		<edge from-layer="64" from-port="2" to-layer="65" to-port="0" />
		<edge from-layer="65" from-port="1" to-layer="74" to-port="0" />
		<edge from-layer="66" from-port="0" to-layer="67" to-port="0" />
		<edge from-layer="67" from-port="1" to-layer="68" to-port="1" />
		<edge from-layer="68" from-port="2" to-layer="69" to-port="0" />
		<edge from-layer="69" from-port="2" to-layer="72" to-port="0" />
		<edge from-layer="70" from-port="0" to-layer="71" to-port="0" />
		<edge from-layer="71" from-port="1" to-layer="72" to-port="1" />
		<edge from-layer="72" from-port="2" to-layer="73" to-port="0" />
		<edge from-layer="73" from-port="1" to-layer="74" to-port="1" />
		<edge from-layer="74" from-port="2" to-layer="75" to-port="0" />
		<edge from-layer="75" from-port="2" to-layer="86" to-port="0" />
		<edge from-layer="75" from-port="2" to-layer="78" to-port="0" />
		<edge from-layer="76" from-port="0" to-layer="77" to-port="0" />
		<edge from-layer="77" from-port="1" to-layer="78" to-port="1" />
		<edge from-layer="78" from-port="2" to-layer="79" to-port="0" />
		<edge from-layer="79" from-port="2" to-layer="82" to-port="0" />
		<edge from-layer="80" from-port="0" to-layer="81" to-port="0" />
		<edge from-layer="81" from-port="1" to-layer="82" to-port="1" />
		<edge from-layer="82" from-port="2" to-layer="83" to-port="1" />
		<edge from-layer="83" from-port="2" to-layer="123" to-port="0" />
		<edge from-layer="84" from-port="0" to-layer="85" to-port="0" />
		<edge from-layer="85" from-port="1" to-layer="86" to-port="1" />
		<edge from-layer="86" from-port="2" to-layer="87" to-port="0" />
		<edge from-layer="87" from-port="2" to-layer="90" to-port="0" />
		<edge from-layer="88" from-port="0" to-layer="89" to-port="0" />
		<edge from-layer="89" from-port="1" to-layer="90" to-port="1" />
		<edge from-layer="90" from-port="2" to-layer="91" to-port="1" />
		<edge from-layer="91" from-port="2" to-layer="131" to-port="0" />
		<edge from-layer="91" from-port="2" to-layer="96" to-port="0" />
		<edge from-layer="92" from-port="0" to-layer="96" to-port="1" />
		<edge from-layer="93" from-port="0" to-layer="96" to-port="2" />
		<edge from-layer="94" from-port="0" to-layer="95" to-port="0" />
		<edge from-layer="95" from-port="1" to-layer="96" to-port="3" />
		<edge from-layer="96" from-port="4" to-layer="97" to-port="0" />
		<edge from-layer="97" from-port="2" to-layer="108" to-port="0" />
		<edge from-layer="97" from-port="2" to-layer="100" to-port="0" />
		<edge from-layer="98" from-port="0" to-layer="99" to-port="0" />
		<edge from-layer="99" from-port="1" to-layer="100" to-port="1" />
		<edge from-layer="100" from-port="2" to-layer="101" to-port="0" />
		<edge from-layer="101" from-port="2" to-layer="104" to-port="0" />
		<edge from-layer="102" from-port="0" to-layer="103" to-port="0" />
		<edge from-layer="103" from-port="1" to-layer="104" to-port="1" />
		<edge from-layer="104" from-port="2" to-layer="105" to-port="0" />
		<edge from-layer="105" from-port="1" to-layer="114" to-port="0" />
		<edge from-layer="106" from-port="0" to-layer="107" to-port="0" />
		<edge from-layer="107" from-port="1" to-layer="108" to-port="1" />
		<edge from-layer="108" from-port="2" to-layer="109" to-port="0" />
		<edge from-layer="109" from-port="2" to-layer="112" to-port="0" />
		<edge from-layer="110" from-port="0" to-layer="111" to-port="0" />
		<edge from-layer="111" from-port="1" to-layer="112" to-port="1" />
		<edge from-layer="112" from-port="2" to-layer="113" to-port="0" />
		<edge from-layer="113" from-port="1" to-layer="114" to-port="1" />
		<edge from-layer="114" from-port="2" to-layer="115" to-port="0" />
		<edge from-layer="115" from-port="2" to-layer="118" to-port="0" />
		<edge from-layer="115" from-port="2" to-layer="126" to-port="0" />
		<edge from-layer="116" from-port="0" to-layer="117" to-port="0" />
		<edge from-layer="117" from-port="1" to-layer="118" to-port="1" />
		<edge from-layer="118" from-port="2" to-layer="119" to-port="0" />
		<edge from-layer="119" from-port="2" to-layer="122" to-port="0" />
		<edge from-layer="120" from-port="0" to-layer="121" to-port="0" />
		<edge from-layer="121" from-port="1" to-layer="122" to-port="1" />
		<edge from-layer="122" from-port="2" to-layer="123" to-port="1" />
		<edge from-layer="123" from-port="2" to-layer="163" to-port="0" />
		<edge from-layer="124" from-port="0" to-layer="125" to-port="0" />
		<edge from-layer="125" from-port="1" to-layer="126" to-port="1" />
		<edge from-layer="126" from-port="2" to-layer="127" to-port="0" />
		<edge from-layer="127" from-port="2" to-layer="130" to-port="0" />
		<edge from-layer="128" from-port="0" to-layer="129" to-port="0" />
		<edge from-layer="129" from-port="1" to-layer="130" to-port="1" />
		<edge from-layer="130" from-port="2" to-layer="131" to-port="1" />
		<edge from-layer="131" from-port="2" to-layer="171" to-port="0" />
		<edge from-layer="131" from-port="2" to-layer="136" to-port="0" />
		<edge from-layer="132" from-port="0" to-layer="136" to-port="1" />
		<edge from-layer="133" from-port="0" to-layer="136" to-port="2" />
		<edge from-layer="134" from-port="0" to-layer="135" to-port="0" />
		<edge from-layer="135" from-port="1" to-layer="136" to-port="3" />
		<edge from-layer="136" from-port="4" to-layer="137" to-port="0" />
		<edge from-layer="137" from-port="2" to-layer="140" to-port="0" />
		<edge from-layer="137" from-port="2" to-layer="148" to-port="0" />
		<edge from-layer="138" from-port="0" to-layer="139" to-port="0" />
		<edge from-layer="139" from-port="1" to-layer="140" to-port="1" />
		<edge from-layer="140" from-port="2" to-layer="141" to-port="0" />
		<edge from-layer="141" from-port="2" to-layer="144" to-port="0" />
		<edge from-layer="142" from-port="0" to-layer="143" to-port="0" />
		<edge from-layer="143" from-port="1" to-layer="144" to-port="1" />
		<edge from-layer="144" from-port="2" to-layer="145" to-port="0" />
		<edge from-layer="145" from-port="1" to-layer="154" to-port="0" />
		<edge from-layer="146" from-port="0" to-layer="147" to-port="0" />
		<edge from-layer="147" from-port="1" to-layer="148" to-port="1" />
		<edge from-layer="148" from-port="2" to-layer="149" to-port="0" />
		<edge from-layer="149" from-port="2" to-layer="152" to-port="0" />
		<edge from-layer="150" from-port="0" to-layer="151" to-port="0" />
		<edge from-layer="151" from-port="1" to-layer="152" to-port="1" />
		<edge from-layer="152" from-port="2" to-layer="153" to-port="0" />
		<edge from-layer="153" from-port="1" to-layer="154" to-port="1" />
		<edge from-layer="154" from-port="2" to-layer="155" to-port="0" />
		<edge from-layer="155" from-port="2" to-layer="158" to-port="0" />
		<edge from-layer="155" from-port="2" to-layer="166" to-port="0" />
		<edge from-layer="156" from-port="0" to-layer="157" to-port="0" />
		<edge from-layer="157" from-port="1" to-layer="158" to-port="1" />
		<edge from-layer="158" from-port="2" to-layer="159" to-port="0" />
		<edge from-layer="159" from-port="2" to-layer="162" to-port="0" />
		<edge from-layer="160" from-port="0" to-layer="161" to-port="0" />
		<edge from-layer="161" from-port="1" to-layer="162" to-port="1" />
		<edge from-layer="162" from-port="2" to-layer="163" to-port="1" />
		<edge from-layer="163" from-port="2" to-layer="203" to-port="0" />
		<edge from-layer="164" from-port="0" to-layer="165" to-port="0" />
		<edge from-layer="165" from-port="1" to-layer="166" to-port="1" />
		<edge from-layer="166" from-port="2" to-layer="167" to-port="0" />
		<edge from-layer="167" from-port="2" to-layer="170" to-port="0" />
		<edge from-layer="168" from-port="0" to-layer="169" to-port="0" />
		<edge from-layer="169" from-port="1" to-layer="170" to-port="1" />
		<edge from-layer="170" from-port="2" to-layer="171" to-port="1" />
		<edge from-layer="171" from-port="2" to-layer="176" to-port="0" />
		<edge from-layer="172" from-port="0" to-layer="176" to-port="1" />
		<edge from-layer="173" from-port="0" to-layer="176" to-port="2" />
		<edge from-layer="174" from-port="0" to-layer="175" to-port="0" />
		<edge from-layer="175" from-port="1" to-layer="176" to-port="3" />
		<edge from-layer="176" from-port="4" to-layer="177" to-port="0" />
		<edge from-layer="177" from-port="2" to-layer="188" to-port="0" />
		<edge from-layer="177" from-port="2" to-layer="180" to-port="0" />
		<edge from-layer="178" from-port="0" to-layer="179" to-port="0" />
		<edge from-layer="179" from-port="1" to-layer="180" to-port="1" />
		<edge from-layer="180" from-port="2" to-layer="181" to-port="0" />
		<edge from-layer="181" from-port="2" to-layer="184" to-port="0" />
		<edge from-layer="182" from-port="0" to-layer="183" to-port="0" />
		<edge from-layer="183" from-port="1" to-layer="184" to-port="1" />
		<edge from-layer="184" from-port="2" to-layer="185" to-port="0" />
		<edge from-layer="185" from-port="1" to-layer="194" to-port="0" />
		<edge from-layer="186" from-port="0" to-layer="187" to-port="0" />
		<edge from-layer="187" from-port="1" to-layer="188" to-port="1" />
		<edge from-layer="188" from-port="2" to-layer="189" to-port="0" />
		<edge from-layer="189" from-port="2" to-layer="192" to-port="0" />
		<edge from-layer="190" from-port="0" to-layer="191" to-port="0" />
		<edge from-layer="191" from-port="1" to-layer="192" to-port="1" />
		<edge from-layer="192" from-port="2" to-layer="193" to-port="0" />
		<edge from-layer="193" from-port="1" to-layer="194" to-port="1" />
		<edge from-layer="194" from-port="2" to-layer="195" to-port="0" />
		<edge from-layer="195" from-port="2" to-layer="198" to-port="0" />
		<edge from-layer="196" from-port="0" to-layer="197" to-port="0" />
		<edge from-layer="197" from-port="1" to-layer="198" to-port="1" />
		<edge from-layer="198" from-port="2" to-layer="199" to-port="0" />
		<edge from-layer="199" from-port="2" to-layer="202" to-port="0" />
		<edge from-layer="200" from-port="0" to-layer="201" to-port="0" />
		<edge from-layer="201" from-port="1" to-layer="202" to-port="1" />
		<edge from-layer="202" from-port="2" to-layer="203" to-port="1" />
		<edge from-layer="203" from-port="2" to-layer="204" to-port="0" />
		<edge from-layer="204" from-port="1" to-layer="205" to-port="0" />
		<edge from-layer="205" from-port="2" to-layer="208" to-port="0" />
		<edge from-layer="206" from-port="0" to-layer="207" to-port="0" />
		<edge from-layer="207" from-port="1" to-layer="208" to-port="1" />
		<edge from-layer="208" from-port="2" to-layer="209" to-port="0" />
		<edge from-layer="209" from-port="2" to-layer="212" to-port="0" />
		<edge from-layer="210" from-port="0" to-layer="211" to-port="0" />
		<edge from-layer="211" from-port="1" to-layer="212" to-port="1" />
		<edge from-layer="212" from-port="2" to-layer="213" to-port="0" />
		<edge from-layer="213" from-port="1" to-layer="266" to-port="0" />
		<edge from-layer="214" from-port="0" to-layer="215" to-port="0" />
		<edge from-layer="215" from-port="1" to-layer="216" to-port="1" />
		<edge from-layer="216" from-port="2" to-layer="217" to-port="0" />
		<edge from-layer="217" from-port="2" to-layer="222" to-port="0" />
		<edge from-layer="218" from-port="0" to-layer="219" to-port="0" />
		<edge from-layer="219" from-port="1" to-layer="220" to-port="1" />
		<edge from-layer="220" from-port="2" to-layer="221" to-port="0" />
		<edge from-layer="221" from-port="2" to-layer="222" to-port="1" />
		<edge from-layer="222" from-port="2" to-layer="224" to-port="0" />
		<edge from-layer="223" from-port="0" to-layer="224" to-port="1" />
		<edge from-layer="224" from-port="2" to-layer="226" to-port="0" />
		<edge from-layer="225" from-port="0" to-layer="226" to-port="1" />
		<edge from-layer="226" from-port="2" to-layer="227" to-port="0" />
		<edge from-layer="227" from-port="2" to-layer="229" to-port="0" />
		<edge from-layer="228" from-port="0" to-layer="229" to-port="1" />
		<edge from-layer="229" from-port="2" to-layer="232" to-port="0" />
		<edge from-layer="230" from-port="0" to-layer="231" to-port="0" />
		<edge from-layer="231" from-port="1" to-layer="232" to-port="1" />
		<edge from-layer="232" from-port="2" to-layer="233" to-port="0" />
		<edge from-layer="233" from-port="2" to-layer="236" to-port="0" />
		<edge from-layer="234" from-port="0" to-layer="235" to-port="0" />
		<edge from-layer="235" from-port="1" to-layer="236" to-port="1" />
		<edge from-layer="236" from-port="2" to-layer="237" to-port="0" />
		<edge from-layer="237" from-port="1" to-layer="239" to-port="0" />
		<edge from-layer="238" from-port="0" to-layer="239" to-port="1" />
		<edge from-layer="239" from-port="2" to-layer="243" to-port="0" />
		<edge from-layer="239" from-port="2" to-layer="263" to-port="0" />
		<edge from-layer="240" from-port="0" to-layer="253" to-port="0" />
		<edge from-layer="240" from-port="0" to-layer="253" to-port="2" />
		<edge from-layer="241" from-port="0" to-layer="251" to-port="0" />
		<edge from-layer="242" from-port="0" to-layer="248" to-port="0" />
		<edge from-layer="243" from-port="1" to-layer="246" to-port="0" />
		<edge from-layer="244" from-port="0" to-layer="246" to-port="1" />
		<edge from-layer="245" from-port="0" to-layer="246" to-port="2" />
		<edge from-layer="246" from-port="3" to-layer="247" to-port="0" />
		<edge from-layer="247" from-port="1" to-layer="248" to-port="1" />
		<edge from-layer="248" from-port="2" to-layer="250" to-port="0" />
		<edge from-layer="249" from-port="0" to-layer="252" to-port="1" />
		<edge from-layer="249" from-port="0" to-layer="250" to-port="1" />
		<edge from-layer="250" from-port="2" to-layer="251" to-port="1" />
		<edge from-layer="251" from-port="2" to-layer="252" to-port="0" />
		<edge from-layer="252" from-port="2" to-layer="253" to-port="1" />
		<edge from-layer="253" from-port="3" to-layer="254" to-port="0" />
		<edge from-layer="254" from-port="1" to-layer="256" to-port="0" />
		<edge from-layer="255" from-port="0" to-layer="256" to-port="1" />
		<edge from-layer="256" from-port="2" to-layer="258" to-port="0" />
		<edge from-layer="257" from-port="0" to-layer="258" to-port="1" />
		<edge from-layer="258" from-port="2" to-layer="260" to-port="0" />
		<edge from-layer="259" from-port="0" to-layer="260" to-port="1" />
		<edge from-layer="260" from-port="2" to-layer="263" to-port="1" />
		<edge from-layer="260" from-port="3" to-layer="263" to-port="2" />
		<edge from-layer="261" from-port="0" to-layer="262" to-port="0" />
		<edge from-layer="262" from-port="1" to-layer="263" to-port="3" />
		<edge from-layer="263" from-port="4" to-layer="265" to-port="0" />
		<edge from-layer="264" from-port="0" to-layer="265" to-port="1" />
		<edge from-layer="265" from-port="2" to-layer="266" to-port="1" />
		<edge from-layer="266" from-port="2" to-layer="267" to-port="0" />
		<edge from-layer="267" from-port="2" to-layer="270" to-port="0" />
		<edge from-layer="268" from-port="0" to-layer="269" to-port="0" />
		<edge from-layer="269" from-port="1" to-layer="270" to-port="1" />
		<edge from-layer="270" from-port="2" to-layer="271" to-port="0" />
		<edge from-layer="271" from-port="2" to-layer="274" to-port="0" />
		<edge from-layer="272" from-port="0" to-layer="273" to-port="0" />
		<edge from-layer="273" from-port="1" to-layer="274" to-port="1" />
		<edge from-layer="274" from-port="2" to-layer="275" to-port="0" />
		<edge from-layer="275" from-port="1" to-layer="276" to-port="0" />
		<edge from-layer="276" from-port="2" to-layer="279" to-port="0" />
		<edge from-layer="277" from-port="0" to-layer="278" to-port="0" />
		<edge from-layer="278" from-port="1" to-layer="279" to-port="1" />
		<edge from-layer="279" from-port="2" to-layer="280" to-port="0" />
		<edge from-layer="280" from-port="2" to-layer="283" to-port="0" />
		<edge from-layer="281" from-port="0" to-layer="282" to-port="0" />
		<edge from-layer="282" from-port="1" to-layer="283" to-port="1" />
		<edge from-layer="283" from-port="2" to-layer="284" to-port="0" />
		<edge from-layer="284" from-port="1" to-layer="286" to-port="0" />
		<edge from-layer="285" from-port="0" to-layer="286" to-port="1" />
		<edge from-layer="286" from-port="2" to-layer="288" to-port="0" />
		<edge from-layer="287" from-port="0" to-layer="288" to-port="1" />
		<edge from-layer="288" from-port="2" to-layer="289" to-port="0" />
	</edges>
	<rt_info>
		<Runtime_version value="2025.1.0-18503-6fec06580ab-releases/2025/1" />
		<conversion_parameters>
			<is_python_object value="False" />
		</conversion_parameters>
	</rt_info>
</net>
